params-hybrid.pt (torch, 7115 bytes, 8 tensors)

cnn_net.0.weight f4 [32, 6, 3]
00000000: 948f ef3f 1161 3d41 6928 2441 1695 e73f
00000010: 3500 c640 c7ba 833f 1467 fbc0 6311 e740
00000020: eb61 2b41 5871 4d3f 3e9c 5c41 0866 1941
00000030: f1f2 cc3f 63d5 6441 9b6c 5441 e843 3940
00000040: a6fb 4141 d861 1141 df96 3141 96df 2841
00000050: da6a f040 752d 2941 7052 0641 a9bf 9ac0
00000060: f348 b140 891c 8b40 bf1c 3841 8b63 0341
00000070: 7b50 1841 a918 1a41 16ce 2a41 a70a 0b41
00000080: a7ab 0241 0e76 4541 4ca3 6641 1a3c 0641
00000090: 91fd 573e 95f8 f53c 496b 2e3f 968d 503f
000000a0: 2b3e 6ebe 6657 5940 8917 ddc0 5e95 a7c0
000000b0: 4d47 ecc0 c122 bb3e 0117 d43e 392b b5be
000000c0: bc85 243e f2a8 cebe f374 92bf ab67 6cbe
000000d0: 6c80 24bd 8e84 3a3f 591f 5b41 4bf7 4141
000000e0: 3264 7e3f cfc6 70c0 e732 4ac0 afb1 2841
000000f0: 54ad 3d40 0b98 a740 ad19 a340 77e7 6c41
00000100: b052 5641 07cf f93f 0e91 6141 d246 6441
00000110: d359 61bf a003 3941 8fd9 3141 103d dfbe
00000120: 286c ab3f 26b1 2a41 b6a4 9640 fb44 c640
00000130: 6173 3d40 b41c 973f 883b 1640 c0a4 95c0
00000140: 208b 06c1 073a 0440 508b 1641 2df2 6e40
00000150: 1576 2a40 17c2 0241 d5fe 4440 6be8 13bf
00000160: 16d4 a540 3ce2 1440 152b 3b3f 5e68 a63f
00000170: d9fa ac40 3dcb 3240 06b9 0040 dba1 8d40
00000180: b5d3 73c0 b0c5 85c0 e2a5 32c1 dee3 92be
00000190: a461 d5bd 9e37 c540 5d81 d5be 32f8 96bf
000001a0: 18c5 7840 9d24 1ebf 6c6c 5bbf 61ef b83f
000001b0: 0cb3 c3c0 b392 dfbe 5cae e440 be52 71bf
000001c0: e888 6ebe 918b 79c0 cacf cf40 d22b 5641
000001d0: 8a57 1c41 330a cdc0 bebb 5140 d901 de40
000001e0: ae71 f0c0 8354 2840 efc3 0f41 8502 b6c0
000001f0: 8111 be3f 92c5 c540 d7e9 8140 014d 1a41
00000200: 6405 2641 974b a8be bd24 38c0 87e8 b8be
00000210: 4e0a a33e 6e5b 9cc0 beda 10c1 b65c 7e40
00000220: 1d57 0441 cb34 2941 eec7 9c40 2ef4 3541
00000230: ed50 2441 b796 8d40 c958 1c41 db56 2a41
00000240: 1784 1040 766b 0541 b05a df40 8c7d 1d41
00000250: 05bd 84be 94dd 5fc0 120e 36c0 df5c 9fbf
00000260: 23a6 e9c0 7d3d 2b40 e768 0841 9a95 b540
00000270: 3893 8540 84ff 2341 15b0 d140 808d 873f
00000280: aeed c940 4428 6740 7939 ee3e 1a19 a2c0
00000290: 9b01 3ec0 86dd cc40 6609 2441 13c9 fb40
000002a0: 0ecd 5c40 f49c aa40 42b2 db40 6805 19bf
000002b0: af10 bbc0 b5c5 a0c0 2aeb f4be 5e24 a9c0
000002c0: 3826 97c0 7b2a bebf 29bb 90c0 e23a 82c0
000002d0: 2ac6 cabf d1b8 26c1 f56e f6c0 ad9d d43f
000002e0: df40 323f c8d1 ee40 9a84 f1c0 91f2 4dc0
000002f0: a870 b63f 21e3 77bf aa73 24c1 c8a1 00c1
00000300: 1b2c 39bf b6bb 38c1 5bcd c8c0 acaf 5cc0
00000310: 1df7 2cc1 06d3 2fc1 50f8 21c0 29a2 bfbf
00000320: 44f5 bac0 109b 1a41 9335 1841 dbac edbf
00000330: 114d bcc0 ef77 a0c0 23e5 33c0 b719 5bc0
00000340: 7bd5 35bf e262 42c0 7475 dbc0 c568 86bf
00000350: 835a a8c0 c495 43c0 aff4 93c0 e4cd eec0
00000360: b887 cac0 abe6 0cc1 e56b 19c1 39be 6c40
00000370: 55c3 ec40 7298 9d40 08ad 9bc0 ff98 11c1
00000380: 5135 78c0 1175 dbc0 75ce 1bc1 1156 0fc1
00000390: d562 cfc0 31eb 0ec1 c069 f1c0 10f6 04c1
000003a0: e2f0 47c1 dd7c 3dc1 74d7 b6c0 8c32 5bbf
000003b0: b8cc 2840 e0cd d740 9091 733e cb89 d4bd
000003c0: 9d6e 8cbe 1300 34c1 9a9b 39c1 9b83 e6c0
000003d0: e1b4 43bf 684a 1440 0785 e7c0 71df 9f3f
000003e0: 6380 9d40 e08d d8c0 40a1 613f 7b0a 8640
000003f0: a2ba 00c0 9b9a 95c0 c8ab 97bf a286 0b40
1.8715692 11.836198 10.259866 1.8092372 6.1875253 1.0291375 -7.856333 7.2208724
10.711406 0.80251074 13.788145 9.58741 1.601164 14.302096 13.276515 2.8947697
12.123938 9.086388 11.099334 10.554586 7.5130434 10.573598 8.395126 -4.835896
5.540155 4.3472333 11.507018 8.2118025 9.519649 9.631021 10.675314 8.690101
8.166907 12.341322 14.414867 8.389673 0.21092822 0.03002576 0.68132454 0.81466043
-0.23265903 3.3959594 -6.909123 -5.2369833 -7.3837037 0.36549953 0.414238 -0.3538454
0.1606664 -0.4036327 -1.144194 -0.23086421 -0.040161535 0.7285851 13.695153 12.122874
0.99371636 -3.7621343 -3.1593568 10.54338 2.963704 5.23731 5.0968843 14.80651
13.395187 1.9516305 14.097914 14.26729 -0.88027686 11.563385 11.115615 -0.43601274
1.3392382 10.668249 4.7076063 6.1959205 2.9601672 1.1805634 2.3473835 -4.676361
-8.408966 2.0660417 9.409012 3.7335312 2.6634572 8.172385 3.0780537 -0.57776517
5.1821394 2.3263083 0.7311261 1.30006 5.405621 2.7936547 2.011293 4.4260077
-3.8097966 -4.180382 -11.165499 -0.28689474 -0.10419014 6.163039 -0.4170026 -1.1794493
3.8870296 -0.6177462 -0.85712314 1.4448053 -6.1156063 -0.4366661 7.146284 -0.9426688
-0.23294413 -3.8991435 6.494115 13.385698 9.771372 -6.407495 3.2770839 6.9377255
-7.513877 2.6301582 8.985335 -5.6878076 1.4849092 6.1803675 4.059795 9.6438
10.376316 -0.3287017 -2.8772423 -0.36114904 0.318438 -4.886161 -9.053404 3.9744086
8.271268 10.575389 4.8994055 11.372114 10.269757 4.424648 9.771676 10.646205
2.2580621 8.338736 6.9798203 9.843151 -0.2592546 -3.497899 -2.8446088 -1.2450217
-7.3015304 2.675628 8.525611 5.674512 4.174221 10.249882 6.5527444 1.0590057
6.3102636 3.6118326 0.46528223 -5.065564 -2.968848 6.4020414 10.252295 7.868295
3.4500155 5.3316593 6.86551 -0.59773874 -5.8457866 -5.024134 -0.47835666 -5.2856894
-4.7234154 -1.4856714 -4.5228467 -4.069688 -1.5841725 -10.420121 -7.7010446 1.6610619
0.69630235 7.463108 -7.5474367 -3.21793 1.425313 -0.96830946 -10.278238 -8.039497
-0.72332925 -11.545828 -6.275068 -3.4482222 -10.81033 -10.989019 -2.5307808 -1.4971362
-5.8424397 9.662857 9.51308 -1.8568376 -5.8844075 -5.0146403 -2.8108604 -3.4234445
-0.7102887 -3.0372853 -6.8580875 -1.0500723 -5.261049 -3.056016 -4.6236186 -7.462633
-6.329067 -8.806315 -9.588841 3.6991103 7.3988442 4.924859 -4.864872 -9.099853
-3.8782542 -6.8580403 -9.737905 -8.958512 -6.4808145 -8.93242 -7.544159 -8.310074
-12.496309 -11.842984 -5.7138004 -0.85624003 2.637495 6.743881 0.23785996 -0.103778444
-0.2742814 -11.250018 -11.600489 -7.203565 -0.76447874 2.3170414 -7.2349887 1.2490064
4.921922 -6.7673187 0.8813667 4.1887794 -2.0113912 -4.6751227 -1.1849298 2.1800923

cnn_net.0.bias f4 [32]
00000000: c113 2541 7940 1a41 9345 c3bf 9627 4941
00000010: 5102 e340 7f64 853e 255b 343f 8337 1541
00000020: e7b3 0541 80c9 97c0 80f0 38c1 6e2b 80bf
00000030: e84d fcc0 0068 9abe 2a05 bec0 fcd4 7641
00000040: 1786 f040 58e2 6e40 8b63 c5c0 9231 1540
00000050: 3105 2b41 91fe bebf 6d83 57c0 fe94 203f
00000060: fb56 eac0 015d 0041 8585 e040 d748 0541
00000070: 1b86 05c0 50b9 1041 a00a 9a40 17df d5be
10.317323 9.64074 -1.5255607 12.572165 7.094033 0.26053235 0.70451576 9.326053
8.356421 -4.743347 -11.558716 -1.0013254 -7.88451 -0.3015747 -5.9381304 15.426998
7.5163684 3.732565 -6.1684012 2.3311505 10.688767 -1.4921438 -3.3673966 0.62727344
-7.3231177 8.022706 7.016299 8.330283 -2.0863101 9.045242 4.813797 -0.41771767

lstm_net.weight_ih_l0 f4 [32, 3]
00000000: c323 f740 3a51 6e40 2122 88c0 510a d040
00000010: d95e 7d40 2f88 d4c0 9ce9 4240 9b96 a73f
00000020: 87a3 b740 493e ab3f cf31 e2be b7f2 4c40
00000030: f7f0 5f3f 23a9 2440 02af 3a40 07a2 703d
00000040: 3166 cd3f 10bb 423f 5fa4 2840 2896 9c3e
00000050: e1c5 c440 b760 0440 565f a7bf 7c65 913f
00000060: cd8f 6a3f c3a5 193f b857 fa40 a849 46c1
00000070: 648c f9bf a92c 92c0 c8ed ddc0 a2e3 2c41
00000080: 66b6 4941 a2ba 133f 8238 ec3e 1128 bc3d
00000090: 83a9 fa3d 2a34 683f 22ea 763f bb73 f63f
000000a0: a8f3 2740 8494 f03e 3835 8040 d393 8640
000000b0: e906 a63f eb41 d03f b1ca 823f ab49 bf3f
000000c0: 5919 0dc1 6afd a6bf ef04 2740 623e 953f
000000d0: eced 0a40 2517 113f ec3a 17c0 5ac5 20c0
000000e0: 8a39 dec0 3787 3e3e 5246 b93e d3bc 683e
000000f0: aa4b 94bd cb93 abbe e8d5 91bf e0f2 cf3f
00000100: 3b0e ecbf 453a b43f 29be a340 e357 3140
00000110: 4d71 323e ab68 c03f 85f6 503e 0187 aabe
00000120: 9140 4dc0 3fed 20c1 3c60 98c0 a34b 19c0
00000130: d507 f440 6094 1241 7981 0f40 41a2 6640
00000140: f4e4 5540 d2c1 8d3f 29a6 2dc0 a612 dfc0
00000150: 77f1 c8bf 6e04 dfc0 f38b 0cc1 d77a 33c1
00000160: d66d a7c0 2270 2dc1 b99f dd3f 2562 2e40
00000170: e36e 3d40 c5de 33c1 c549 05c1 64f4 89c0
7.7231154 3.7237077 -4.254166 6.5012593 3.958914 -6.641624 3.0455084 1.3092836
5.738712 1.3378383 -0.44178626 3.2023141 0.8747706 2.5728233 2.9169316 0.05874827
1.6046811 0.76066685 2.6350324 0.3058331 6.149155 2.068403 -1.3075969 1.1359096
0.9162567 0.6001856 7.823208 -12.3929825 -1.9495969 -4.5679517 -6.935276 10.805574
12.607031 0.57706654 0.46136862 0.091873296 0.12239363 0.90704596 0.9645101 1.9254068
2.6242466 0.46988308 4.0064964 4.205545 1.2970859 1.6270117 1.0218107 1.4944357
-8.818688 -1.3046086 2.6096761 1.1659663 2.1707716 0.5667594 -2.3629713 -2.5120454
-6.944524 0.18606268 0.36186463 0.2272828 -0.07240994 -0.33511195 -1.1393404 1.6245995
-1.8441843 1.4080282 5.116963 2.7709892 0.17426033 1.5031942 0.2040654 -0.33306125
-3.2070658 -10.057921 -4.7617474 -2.3952415 7.625956 9.161224 2.2422774 3.6036532
3.3420992 1.1074774 -2.7132666 -6.9710264 -1.5698689 -6.9692907 -8.784167 -11.21749
-5.2321577 -10.839876 1.7314368 2.7247403 2.959893 -11.241887 -8.33051 -4.311083

lstm_net.weight_hh_l0 f4 [32, 8]
00000000: eca3 01c2 4073 c93f 27ea 59c1 b1bf f63f
00000010: c58c a2c0 13ee 97be 6581 7241 cb5b 7e41
00000020: 1df5 99c0 4374 d1c0 e4f7 72c1 4656 5841
00000030: 227a bbc0 be6d 0042 99c6 3a41 e415 e540
00000040: b70f f6c0 6777 ab3f 00e1 84be 849b 6641
00000050: c85c e2c1 c05e de40 fe41 c241 ba09 bf41
00000060: 9917 82c0 2328 2040 03f6 1341 c60c c140
00000070: 7a96 02c1 90c8 e540 91b3 bbc0 a368 ce40
00000080: 6833 75c0 fe99 6741 9e3f 4ebf e660 8c41
00000090: 3851 5740 e5e1 9c41 ce32 a540 7aef 5241
000000a0: 3c57 1abf 0a75 b240 6c94 6541 e67e 7240
000000b0: 1e75 2f3f 0e3b 2241 fc1f 2b41 e5fd 1b40
000000c0: 7840 85c0 1661 043f ab1b 1dc1 64e9 5241
000000d0: a29c 8bc1 3a20 4941 7217 5241 d175 3641
000000e0: 38a4 6cc0 d158 71c1 ecfb 99c1 31d4 9e40
000000f0: 1237 5440 1ed7 9440 ceda ccbd 1516 fc40
00000100: e16f bbbf 93ac 26bf b14c e8c0 ac63 9240
00000110: b714 1a3f 86cd 7841 7c9a 06be f28f 3f40
00000120: b0ec a4c0 f1af da41 1fca bdc0 3617 ab3f
00000130: d189 da40 2d8c 0a41 a034 2241 06f8 f240
00000140: 0410 ffc0 dde3 6a41 f27a b041 2637 bf40
00000150: 8ee7 1ec0 3f00 f840 aebd 21bf 7ffd 1540
00000160: 4ede b8bf 1b0e 3040 1df2 3ac0 53dd 1241
00000170: 99e6 b7c0 d893 1841 70ac 5040 4f2a 7440
00000180: a6fe 22c0 9315 b640 70cd 76c0 ac94 8f41
00000190: 0daf cfc0 6dd5 d140 4eab 4f40 5bca 1241
000001a0: 9374 f7c0 00b1 083f 82da 4240 2b7c 7e40
000001b0: 2bec b3bf 273f 8b40 2f22 f93f 7aa6 3541
000001c0: 3944 8240 6be6 a740 f59a 7241 7036 8340
000001d0: 4f0c 48c1 2e7e 80c0 8717 8841 2821 2342
000001e0: 85b6 02c1 6822 0840 9ab9 83bf 1f11 51c0
000001f0: 71e3 f0c0 3220 cf3f a209 bb40 92f1 6640
00000200: 7385 a741 fc1b a1be c1e4 0041 3f64 1fc0
00000210: 68a1 9340 2c49 b2c0 918f 20c1 4ecc a9c0
00000220: d1b0 5abf 52de 563f f03b 32c0 89f1 1e41
00000230: 64ee 08c0 f3d5 2d41 acf5 eb3f ad64 1941
00000240: 027f b3be 1465 d4be 7634 f7c0 9ffc f840
00000250: 21b2 ac40 645a f33c 3040 1b41 75a9 83c0
00000260: 9e86 10c0 2f58 8340 8992 eabf 8e3c 0541
00000270: 536b 9ac0 9459 d140 7225 9140 7394 8a40
00000280: 3146 7440 5980 da3f 778f 7bbf 1358 6bc0
00000290: 1e99 b7bf d39c 60c0 74bf 0fc1 e80c 63c1
000002a0: 8c5d 4fbf a07c a63f f327 d240 344a fb3f
000002b0: 194d 97c0 45d8 d440 9a39 5641 26c0 cb40
000002c0: 672a 8fc0 767f 2340 9e58 34c0 8f2e 3a41
000002d0: e14b c83f d8a9 0c41 b9ce b640 e2e1 2141
000002e0: b905 20c0 916f 02c1 fc4d 0fc1 7fa4 c940
000002f0: afb6 47bf f80c a941 ca67 9840 af2e f540
00000300: cedb 2bc1 15c8 c341 6746 9b41 e897 4a41
00000310: 1f97 cd3f 774a 3541 d41e e641 8797 0641
00000320: f3e7 a63f b976 1c40 504f 70c0 b2b1 4541
00000330: feae 0042 c7fb 913f 7f16 4a41 d7ca 75c0
00000340: d00e a1c0 39da 9540 4773 0b40 683e 8a41
00000350: cddf b9c1 083c 5d41 57fb 1940 9613 6b41
00000360: 4be5 d1c0 2a29 3241 d4cb ffc0 7f56 0741
00000370: 4008 2241 ba0f 8040 ea2c b141 ba07 2dbe
00000380: 37b2 653e 1f64 653f 8edc ccc0 c43c 4740
00000390: fc02 8441 3315 d9c0 8b59 bb41 b986 4e40
000003a0: 9e3e 73c0 63ed 1741 2735 6340 8b5e 7341
000003b0: d9e7 c541 9204 153f f270 3b41 02db 9cc0
000003c0: fcb0 c4c1 0f03 eac0 40dc ccc0 43f3 6740
000003d0: 518b 6ec1 c6bf 1941 f56d 3441 22d2 ca40
000003e0: 6b35 d740 3127 8140 a419 c440 48ad 7841
000003f0: 05d0 1d41 ad00 8741 5a62 5d41 777b 18c1
-32.41008 1.5738297 -13.619666 1.927725 -5.079684 -0.29673824 15.15659 15.89741
-4.811171 -6.545442 -15.18552 13.521063 -5.858659 32.10717 11.673486 7.158922
-7.6894183 1.3395814 -0.2595291 14.412968 -28.295303 6.949066 24.282223 23.87975
-4.0653806 2.5024498 9.247561 6.0328093 -8.161737 7.1807327 -5.8656697 6.450273
-3.8312626 14.475096 -0.8056582 17.547314 3.3643322 19.6103 5.1624517 13.183466
-0.6028936 5.576787 14.348736 3.7889953 0.6853808 10.139418 10.695309 2.4373715
-4.1641197 0.5171064 -9.819255 13.18198 -17.45148 12.570368 13.130724 11.403764
-3.697523 -15.084184 -19.248009 4.9634023 3.3158612 4.6512594 -0.10002671 7.8776956
-1.4643518 -0.6510708 -7.2593617 4.574667 0.6018786 15.550177 -0.13144869 2.9931607
-5.1538925 27.335909 -5.930923 1.3366458 6.8293233 8.659223 10.137848 7.5927763
-7.970705 14.680631 22.060032 5.975482 -2.482883 7.75003 -0.63180053 2.3435972
-1.4442842 2.750861 -2.9210274 9.179034 -5.746899 9.536095 3.2605247 3.8150823
-2.5467925 5.6901336 -3.856289 17.947594 -6.4901185 6.557303 3.2448306 9.174403
-7.7329803 0.5339508 3.0445867 3.9763286 -1.4056448 4.351459 1.9463557 11.353144
4.070828 5.246877 15.162831 4.100395 -12.503005 -4.015403 17.011488 40.78238
-8.16956 2.1271 -1.0291016 -3.26667 -7.527764 1.61817 5.844926 3.6084943
20.94016 -0.31466663 8.055848 -2.4904935 4.613453 -5.571432 -10.03505 -5.3061895
-0.8542605 0.83932984 -2.7849083 9.933969 -2.1395502 10.864734 1.8434348 9.587079
-0.35057837 -0.41483366 -7.725154 7.7808375 5.3967443 0.029706188 9.703171 -4.1144357
-2.2582164 4.1045146 -1.8325969 8.327284 -4.825601 6.542185 4.535821 4.3306212
3.8167841 1.7070419 -0.98265785 -3.6772506 -1.4343603 -3.5095718 -8.9842415 -14.190651
-0.81002116 1.3006783 6.5673766 1.963202 -4.7281613 6.6514 13.389063 6.3672056
-4.473926 2.5546546 -2.8179088 11.636367 1.5648156 8.791466 5.7127347 10.117647
-2.5003493 -8.152238 -8.956539 6.30133 -0.7801313 21.131332 4.7626696 7.6619487
-10.741163 24.472696 19.409376 12.6620865 1.6061743 11.33068 28.765053 8.411994
1.3039535 2.4447463 -3.7548409 12.355883 32.17089 1.1404961 12.630492 -3.8405054
-5.033058 4.6828885 2.178911 17.280472 -23.234278 13.827156 2.4059656 14.692282
-6.55924 11.13505 -7.9936314 8.458617 10.127014 4.0019197 22.14693 -0.16897479
0.22431265 0.896059 -6.401923 3.1130838 16.501457 -6.783838 23.418722 3.2269728
-3.8006968 9.495456 3.5501192 15.210582 24.738207 0.582101 11.715075 -4.9017344
-24.586418 -7.3128734 -6.401886 3.6242225 -14.909013 9.60932 11.276845 6.338151
6.7252707 4.036034 6.12813 15.542305 9.863286 16.87533 13.836512 -9.530143

lstm_net.bias_ih_l0 f4 [32]
00000000: 42f3 1741 7ff8 6241 a0cd 8240 4b98 cec0
00000010: 8510 56c0 63af 9a40 26a2 fe40 3a2a 55bf
00000020: d1cf a340 d7f6 1441 812b 6dc0 0792 da40
00000030: 4782 5540 721f 1541 c0e4 8f40 24ba 2741
00000040: ad94 0ac1 5761 a940 d9b3 3141 e3ce 343f
00000050: f36f c4c0 a45c 3b40 c23b 1741 5339 9840
00000060: 6c3a 9c40 c975 9341 4a78 0341 4485 a141
00000070: 5f60 9a41 469a 3b41 b78f 1b41 5b42 3541
9.496889 14.185668 4.0876007 -6.4560905 -3.3447583 4.8339095 7.9572935 -0.8326756
5.119118 9.310264 -3.7057803 6.8303256 3.3360765 9.320177 4.4966736 10.4829445
-8.661298 5.2931323 11.106408 0.70628184 -6.1386657 2.9275293 9.452089 4.7569976
4.8821316 18.432512 8.216867 20.190071 19.297056 11.725164 9.722587 11.3287

lstm_net.bias_hh_l0 f4 [32]
00000000: 8a69 2841 e2c4 6a41 4a54 c040 8766 cdc0
00000010: 91ef 0dc0 fca5 6e40 2c9e 0741 f5d0 0e40
00000020: 6a33 6240 e02a 1641 83e9 8ac0 3ed1 9840
00000030: be5d 8e40 487e 2941 65f5 a640 c74b 2d41
00000040: 64c6 05c1 a28a 9540 9453 2941 f7a6 a03f
00000050: dad7 8dc0 fe01 9f40 7e62 ff40 e1d9 5f40
00000060: 44a6 c440 731a 7d41 920b 0441 8360 a741
00000070: 0b87 9b41 86bf 4941 9d1c 0541 07ab 1e41
10.525766 14.673067 6.010289 -6.4187655 -2.217747 3.728881 8.476116 2.2315037
3.534388 9.385468 -4.341005 4.7755423 4.448943 10.59333 5.2174554 10.831
-8.360935 4.673173 10.582905 1.2550954 -4.432599 4.968993 7.980773 3.4976733
6.145296 15.818957 8.252825 20.922125 19.440939 12.609259 8.319486 9.916755

linear_net.weight f4 [4, 8]
00000000: c1f5 edc4 9b18 0545 f4d9 f444 1a79 0f45
00000010: b1c4 10c5 9dc1 0e45 fcaa 0a45 0da5 0e45
00000020: ef3d 7944 7790 89c4 cd4f 95c4 50d9 90c4
00000030: 41bb 9044 6752 93c4 26ff 89c4 30c7 90c4
00000040: 080b c8c4 b12a ec44 0a2d 0345 b256 f844
00000050: de6e f3c4 f9b6 f944 1f58 ec44 b6b5 f544
00000060: 432e 6fc4 5ea9 9644 5596 4144 6617 a644
00000070: e26d a5c4 ff3d a144 73ac a644 f655 a244
-1903.6798 2129.5378 1958.811 2295.5688 -2316.2932 2284.1008 2218.6865 2282.3157
996.9677 -1100.5145 -1194.4938 -1158.791 1157.8517 -1178.5751 -1103.9734 -1158.2246
-1600.3447 1889.3341 2098.815 1986.7092 -1947.4646 1997.7179 1890.7538 1965.6785
-956.72284 1205.2927 774.34894 1328.7312 -1323.4338 1289.9374 1333.389 1298.6863

linear_net.bias f4 [4]
00000000: 9876 1645 c9d2 7ac4 d69d e544 1280 c344
2407.412 -1003.2935 1836.9324 1564.0022
