params-hybrid.pt (torch, 169013 bytes, 14 tensors)

cnn_net.0.weight f4 [32, 6, 3]
000000 5b dc 03 3c d7 76 ae 3c 48 55 e3 3c d9 10 c8 3c
       0.008048142 0.021296902 0.027750626 0.024422096
000010 14 c6 68 3d 81 f2 54 3c 6d ae a2 3b ab 29 3f 3d
       0.056829527 0.012997271 0.004964641 0.046670597
000020 32 54 3b 3d 79 fa ec 3a 4c 10 47 3b 5d 69 33 3d
       0.04573459 0.0018080018 0.0030374704 0.043801654
000030 63 0e b0 3c e1 88 06 3d b9 44 f6 3c c8 86 6e 3d
       0.021491235 0.03284538 0.030062066 0.058234006
000040 7f e0 81 3c 7e bf 43 bc e2 42 e5 3c fd 62 a8 bc
       0.015854118 -0.011947511 0.027985994 -0.020555014
000050 f1 9b c5 3c 56 d9 83 3c 11 5e 1d 3d 76 b6 e0 3c
       0.02412221 0.016094845 0.038419787 0.027430754
000060 1f ad 8d 3d 96 a8 11 3c 44 28 14 3d 2a 13 30 bc
       0.06917786 0.008890292 0.036171213 -0.010746757
000070 19 63 b9 3c 49 a9 a2 3b 1d d1 32 3d a2 69 05 bc
       0.022630261 0.004964028 0.043656457 -0.008142861
000080 a0 18 fc 3c 9e 83 ca 3c dc 49 f1 3c e7 fd 18 3d
       0.03077346 0.024720963 0.029454164 0.037351515
000090 29 b7 9b 3c 33 13 05 3a a1 1a 57 3c 30 0f 30 3d
       0.019008236 0.0005076408 0.013128907 0.042983234
0000a0 5d 57 d4 3c e9 7b 13 3d 5a 4e 54 3d 2a e3 c4 3c
       0.025920564 0.03600684 0.051832534 0.024034102
0000b0 6c 39 4c 3d df 57 9b bc 65 3a 86 ba e4 6c f0 3c
       0.04985945 -0.018962799 -0.0010240792 0.029348798
0000c0 e6 fd fc 3c 6c 09 9d 3c d7 2a 93 3a 32 6e 99 3c
       0.030882787 0.019169532 0.0011227977 0.018729303
0000d0 c3 aa 5e 3d 53 40 98 3c 36 7d a5 3c f8 02 ad 3c
       0.05436207 0.01858536 0.020201307 0.02111958
0000e0 a3 ad 59 3c 71 1b d2 3c 30 2f a3 3c b6 36 35 bc
       0.013286027 0.02564785 0.019919962 -0.011060407
0000f0 fb e6 18 3b f3 5d d9 3c d6 be cf 3c e6 f6 bd bc
       0.0023331034 0.026534056 0.025359552 -0.02318902
000100 9b 9b fc 3c d0 97 21 bc a0 6b fd 3c f6 de 21 3d
       0.030835917 -0.009862855 0.030935109 0.039519273
000110 f1 6b df 3c 6a 8f 13 3d cf 85 78 3c 03 e4 23 bc
       0.02727315 0.036025442 0.015168621 -0.010003093
000120 87 1c fa 3c 23 b9 9e bb 28 44 43 3d 6d 04 c1 3c
       0.030531181 -0.0048438474 0.04767242 0.02356168
000130 d8 1f 96 3b 2b 16 ae 3c 95 15 c5 3c 93 65 6c bb
       0.004581433 0.021250805 0.024058143 -0.0036071285
000140 50 bb 91 3c 09 fb 01 3d 52 fb 09 3d 1d 20 05 bc
       0.017789513 0.031733546 0.033686943 -0.008125332
000150 39 0f 95 3d f3 fc 80 3d de 01 82 3c 24 04 34 3d
       0.07278294 0.06298246 0.015870031 0.04394926
000160 c7 7f 61 3c 1e 9b 08 3d 68 18 5c 3a 1b 47 ed 3b
       0.013763375 0.033351056 0.0008395971 0.0072411424
000170 c4 bd be 3c ba 7e cf 3c 55 0f 6f 3d 83 1c 0c 3d
       0.023283847 0.025328983 0.05836423 0.03420688
000180 c6 72 8f 3c 93 ad 03 3d ee 08 06 3d 24 0d f3 bb
       0.017510783 0.032147955 0.03272336 -0.007417338
000190 7e f1 ec bb 8c 46 09 3d 5d 4c 9e 3b 6f be e8 3c
       -0.0072309365 0.033514544 0.0048308806 0.028411118
0001a0 00 6f 78 bc 93 73 0f 3d 72 5d 0f 3c c3 92 c0 bb
       -0.015163183 0.03502233 0.008750306 -0.0058768704
0001b0 85 69 b4 3c 39 b5 02 3d 78 4d 45 ba f8 34 92 3d
       0.022022972 0.03191111 -0.00075264974 0.07139009
0001c0 0b 2a 32 3d 81 52 a8 3a b5 13 f2 3c 28 92 4a bd
       0.043497127 0.0012841971 0.029550413 -0.04945579
0001d0 50 64 96 3c 73 27 3c bc 19 fe 63 3c 4c 32 96 3c
       0.01835838 -0.011484015 0.013915562 0.01833453
0001e0 61 7d b0 bb f6 f8 e2 3c 58 26 26 3c 5f 55 e0 3b
       -0.00538604 0.027706604 0.010140978 0.0068461145
0001f0 35 fe a9 3c 2f 57 f2 3c 7a d1 64 3c 55 ce 42 3c
       0.020751098 0.029582588 0.013965959 0.011890014
000200 07 14 bb 3c 67 8e 04 3d 7f 13 90 3c c0 a0 16 3d
       0.022836698 0.032362368 0.017587421 0.036774397
000210 36 bb 3e 3c e8 fb 19 3d f4 03 b9 3c c3 77 21 3d
       0.011641314 0.037593752 0.022584893 0.039420854
000220 0a 66 8e 3c c5 c0 a5 3c ad 8b 48 3d 8f 81 e8 3c
       0.01738264 0.020233521 0.04896133 0.02838209
000230 b6 ea a8 3c fd 77 02 3d 49 97 a4 3c d1 60 9a 3c
       0.020619731 0.03185271 0.02009167 0.018844994
000240 01 d7 7f 3c 67 1a 9b bb ce 14 4f 3c 16 77 1b 3d
       0.015615226 -0.004733372 0.012639238 0.037955366
000250 cf 66 e6 3c 69 c0 28 3c dd 1f 6c 3d 10 c5 3f 3c
       0.028125195 0.01029978 0.057647575 0.011704698
000260 5d 70 2e 3d a4 3f 2f 3c bd 04 93 3c 82 bf 28 3d
       0.042587627 0.010696325 0.017946595 0.04119826
000270 bf f0 00 3d 88 46 e1 3b 50 91 16 3d df c1 01 3d
       0.031479593 0.006874863 0.036759675 0.03167903
000280 67 69 24 3d 19 57 e3 3c c1 73 05 bb 14 d5 33 3d
       0.040139582 0.027751492 -0.0020363184 0.04390438
000290 a7 1e 5f bb c6 d6 26 3d 37 e3 2d 3d 5b 03 be 3c
       -0.003404537 0.040732168 0.042453017 0.02319496
0002a0 01 ec 1c 3c 95 a5 46 3c bc ba bd 3c 83 9e 09 3d
       0.009577752 0.012124439 0.023160331 0.033598434
0002b0 b3 c3 b6 3c 58 29 1f 3d 23 d7 44 3d aa 44 aa 3c
       0.022310114 0.038857788 0.048056733 0.020784695
0002c0 fb f2 d4 3c 2b 2e 30 3d e2 6a e7 3c 42 e8 1f 3d
       0.025994768 0.04301278 0.028249208 0.039039858
0002d0 41 53 3a bb b3 89 dd 3c 8e a9 68 3c 37 eb 2b 3d
       -0.002843097 0.0270432 0.014200581 0.041972365
0002e0 a6 6d fa 3c 58 86 a9 3d b6 6f 48 3b c7 90 6d 3c
       0.030569863 0.08277577 0.0030584163 0.01449985
0002f0 43 cf e9 3c df 72 6b 3c 7d 7d 37 3c 6f 47 04 3c
       0.028541213 0.014370649 0.011199352 0.008073672
000300 6a d8 65 39 31 4e 60 3d 7d 57 b6 3c 14 b8 fc 3c
       0.00021919762 0.05476207 0.022258515 0.030849494
000310 c6 ca cf ba ae c1 98 3c 9f 54 03 bd d1 24 1b bc
       -0.0015853278 0.018647041 -0.032063123 -0.009469227
000320 15 30 e4 3c 91 92 31 3d ed 0b 6e 3d cd 63 c9 3c
       0.027854959 0.043352667 0.058116842 0.024583722
000330 25 e0 a7 3c fd 4e 88 3c 06 77 8b 3d 1e f7 2f 3c
       0.020492623 0.016639227 0.06809811 0.01074007
000340 05 9a be 3b 1d 1b 13 bd 40 bc a3 3c 50 eb ed 3c
       0.0058167004 -0.03591453 0.019987226 0.02904287
000350 b7 cf 96 bb ab b1 04 3d be e6 35 3c c9 c9 0a 3d
       -0.0046023983 0.032396 0.0111023765 0.033883844
000360 52 01 ad bc 69 92 11 3d 6b 5a 60 bc 12 4b 23 3d
       -0.021118794 0.03554002 -0.013693432 0.039866515
000370 38 d6 ef 3c 89 d4 8a 3d dd fc 01 3d c6 74 b6 3c
       0.029276952 0.06778819 0.03173529 0.022272479
000380 22 ae 33 3d ec d7 1f 3d 57 40 89 3b 31 95 37 3c
       0.043867238 0.03902428 0.004188578 0.011205004
000390 2d 5d 50 bc 36 2f 22 bc 74 17 98 3d e2 ca 91 3c
       -0.012717527 -0.009898951 0.07426348 0.017796937
0003a0 a2 5d ff bb 95 48 44 3d e4 0a 83 3c 8a 7e cb 3b
       -0.0077931443 0.047920782 0.015996404 0.006210153
0003b0 8e 47 0e bd b8 e6 3e 3d 0d b4 cc 3c 10 22 09 3d
       -0.03473621 0.04660675 0.024988199 0.03347975
0003c0 fe b3 5d 3d f7 ac 7e 3c 6f fc 0f 3d 8e e7 44 3d
       0.054126732 0.015544168 0.03515285 0.04807239
0003d0 64 d1 1c ba 27 ad 32 3d 5e 9b 4a bb 7e 8b 8a 3c
       -0.00059821294 0.043622162 -0.003091536 0.016912218
0003e0 f8 35 8b 3c 7d 5b f0 3c 4d de 61 3b 94 c9 0a 3d
       0.016993508 0.0293405 0.0034464777 0.033883646
0003f0 e6 e2 e5 3c e9 6d 64 3d 4a e1 91 3a d0 cf c2 3c
       0.028062295 0.05576888 0.0011129763 0.023780733

cnn_net.0.bias f4 [32]
000000 7c e7 3b 3d fe 1e 93 bb 2c 6c 0c bb 02 65 a0 3c
       0.045875058 -0.0044897785 -0.002142678 0.019579414
000010 a7 97 38 bc 6a 43 9a bc ec ce 74 3c b1 e6 3d 3d
       -0.0112666255 -0.018830974 0.014941912 0.046362583
000020 2c 2b 57 3c 29 21 c3 bc 46 3f ce bb 01 71 ed ba
       0.013132852 -0.023819523 -0.006294164 -0.0018115343
000030 95 86 81 3c 6b 9c 9f 3c 38 c9 f2 3b 1b 39 db 3c
       0.015811244 0.019483766 0.007409241 0.026760628
000040 bf 45 28 bc 92 66 be bc 4b 2e 98 bc 10 a4 ae 3c
       -0.010270535 -0.023242269 -0.018576762 0.021318465
000050 6a f4 8b 3c 9b 0a 8d bc b6 87 17 3b 16 70 80 3c
       0.01708432 -0.017216971 0.0023121662 0.015678447
000060 bb ae dc 3a ad d2 65 3c 29 be 25 3d 23 6e bb 3c
       0.0016836742 0.01402728 0.040464554 0.022879666
000070 f1 02 d6 3c 96 75 5b 3c 30 38 7f 3c a1 8c a3 3c
       0.02612445 0.013394734 0.015577361 0.019964518

cnn_net.3.weight f4 [32, 32, 3]
000000 97 17 cd 39 6d 14 9d bb a1 74 26 3c 8b 21 ac 3c
       0.00039118223 -0.0047936947 0.010159642 0.021012088
000010 7a 56 e4 bc c6 fd b0 3b bc be b8 3c ca 82 c3 3c
       -0.027873266 0.005401346 0.022551887 0.023866076
000020 18 04 90 bb dd 0f eb 3c f5 ac 1d bc 9c e2 b9 3c
       -0.0043950193 0.028694088 -0.009623756 0.022691064
000030 1a 6e 08 bd a6 5a 05 3d 84 a0 67 3c 63 87 91 bc
       -0.033308126 0.032557152 0.014137391 -0.017764753
000040 cd 7b b4 3c 7c 40 71 3c ba 97 0b bd 41 ac 1f bb
       0.022031689 0.014724847 -0.034080245 -0.0024364146
000050 8e 4d 9a 3b ef 38 f8 3c 5c 1c ad bb 95 7c 6f bc
       0.0047089523 0.030300586 -0.0052829217 -0.014617105
000060 3c d3 da 3b 9f f4 ad bb 98 da 2d 3d a3 c0 f1 3c
       0.006678013 -0.005308702 0.042444795 0.029510802
000070 5d 56 e4 bc 6a 1f 4a 3d ef e3 89 3c 0d 92 26 3d
       -0.027873212 0.049346365 0.01683232 0.04066663
000080 87 6e 8e 3c 2c a9 7c ba 37 8a 53 3c fa c1 9f 3c
       0.017386688 -0.00096382457 0.012911371 0.019501675
000090 4e ec 02 bc 6f 60 bb bb 52 75 f6 3b 0d e0 44 3c
       -0.00799091 -0.005718283 0.00752131 0.0120163085
0000a0 78 e7 f9 ba 5a 95 df 3b f6 0b 95 3c 54 81 ce 3c
       -0.0019066175 0.006823224 0.01819418 0.025208153
0000b0 e4 81 2a 3d 49 fb af 3c 30 2d 20 3c 18 e1 31 3c
       0.04162778 0.021482127 0.009776399 0.010856889
0000c0 5a c7 9e bc cd 38 89 3c 7e ad 36 3d fc 72 1d 3c
       -0.019382168 0.016750718 0.04459905 0.009609934
0000d0 07 08 bd 3c ab 36 32 3c d1 5f 64 bc 62 47 37 3b
       0.023075117 0.010877292 -0.01393886 0.0027966131
0000e0 3f ac 6c 3c 81 89 82 3c 5c 42 0c 3d 1c 86 a4 3c
       0.014445364 0.015934708 0.034242973 0.02008348
0000f0 43 26 a0 3c 0a 2a 6e b9 d6 99 05 3d 93 a3 88 3c
       0.019549495 -0.0002271311 0.032617413 0.01667956
000100 7c 02 64 3c 7d d9 3d 3b 37 8c b9 3b d1 57 5b 3b
       0.013916608 0.0028968744 0.005662467 0.003346909
000110 1c c6 13 ba a7 10 1c 3d 2e 54 21 bc 51 cd c2 3b
       -0.00056371256 0.03810182 -0.00984673 0.005944886
000120 86 fb 43 3c d7 37 f0 3a b1 45 aa 3c aa f4 d2 3c
       0.011961823 0.0018327188 0.020785185 0.02575143
000130 4d 9f 38 bd d0 6f a5 3b 54 2b 87 bb 67 00 c9 bc
       -0.045073796 0.0050487295 -0.004125038 -0.024536325
000140 4b fc b1 3b 5a e2 df 3b 3c 0a b5 3c 9d 19 3e 3d
       0.005431687 0.006832403 0.022099607 0.046411145
000150 f6 43 84 bb 1b 6a eb 3b ff 1f 21 3d 18 44 f3 ba
       -0.004036422 0.0071842796 0.039337154 -0.0018559722
000160 b8 f0 36 3d bc b5 f2 3c e1 63 f6 3c da 0d eb bc
       0.04466316 0.029627673 0.030076923 -0.028693128
000170 18 10 0e 3d 45 47 97 3c c5 14 0e bc 0f dc 9d 3b
       0.034683317 0.018466601 -0.008671944 0.004817493
000180 05 b3 65 3d 00 da 7e bc b4 d4 1e 3c 3a 7e 6f 3c
       0.05607893 -0.015554905 0.009694267 0.014617497
000190 b9 1c 02 3d 68 26 3a 3c 02 ac 3c 3c 03 3a e3 3c
       0.031765673 0.011361696 0.011515619 0.027737623
0001a0 4d 31 b2 3c a3 32 ba 3c c3 e4 c0 3c d4 3f fd 3b
       0.021752024 0.022729224 0.023546582 0.007728556
0001b0 d1 8a 11 3c bc 93 d3 bc 8d 26 6a 3b 6e 46 14 3d
       0.008883194 -0.025827281 0.0035728544 0.03619998
0001c0 aa 4a f3 bb 66 9e 65 3c 85 e1 14 3d 8d c8 c3 3b
       -0.007424672 0.014014816 0.036347885 0.0059748353
0001d0 66 a6 0e bc c9 ab f2 3b 8b 56 ab 3c e6 1c 50 3b
       -0.008706665 0.0074057323 0.02091529 0.0031755506
0001e0 6b f6 0a 3d 17 dc ac 3c c9 2f 36 3d a9 f5 2d 3c
       0.03392641 0.02110104 0.044479165 0.010617652
0001f0 d2 b2 2f 3c a0 a4 0f 3a 3d 37 b7 3a a6 00 06 bd
       0.010723786 0.0005479548 0.0013978254 -0.032715462
000200 9e 45 45 3c c3 db 3a 3c 49 ed 47 3d 58 39 11 ba
       0.012040524 0.011404934 0.048810277 -0.0005539856
000210 8c 5a c6 3c 3d 2e 39 3a 02 49 91 3c 7c af 74 bb
       0.024213098 0.000706408 0.017735008 -0.0037336042
000220 50 7e 0f ba 1d 8e aa ba 6a 4b fc 3c 85 c4 2c bc
       -0.0005473839 -0.0013012324 0.030797679 -0.010544901
000230 50 eb 01 3d da 0d 10 bc 96 9f 57 3b cd df 2f bc
       0.031718552 -0.008792365 0.0032901517 -0.010734511
000240 4d fd a1 bc 3f 41 06 bc 20 d9 57 ba 3e a4 9d 3b
       -0.019774104 -0.008194267 -0.0008233953 0.004810839
000250 c0 4d ad ba 33 a2 52 bb 39 2a 07 3d a9 7a 10 3c
       -0.0013222024 -0.0032140135 0.03299925 0.008818307
000260 a4 68 dd 3b 91 69 ce bc 15 11 fe bb 56 1f 59 bc
       0.006756859 -0.025196822 -0.007753501 -0.0132521
000270 ff b1 0e 3d b6 9f 7a 3c ea 76 ce 3c 0a 82 c8 bb
       0.03483772 0.015296867 0.025203187 -0.0061190175
000280 a6 bd db 3b a8 ea e4 3c f5 e5 51 bc 01 32 34 3d
       0.0067059575 0.027943924 -0.012811174 0.043993
000290 d6 4d 0d 3d 11 1e 77 3b 6e 0e f6 3c 56 db 07 3c
       0.03449806 0.003770713 0.030036177 0.00829204
0002a0 a9 f2 a4 3c 5b 11 3c 3c fa 50 11 3d 88 56 3c bc
       0.02013524 0.011478747 0.035477616 -0.01149524
0002b0 ff a6 14 3c c7 02 a2 bb 07 10 af bb a1 55 20 3d
       0.009073018 -0.0049441787 -0.005342487 0.039144162
0002c0 a4 59 ba 3b 93 83 b4 3b de 70 46 3d e8 c4 52 3c
       0.0056869555 0.005508849 0.048447482 0.012864329
0002d0 19 bb 19 3d 2b 31 70 3c 46 65 d1 3b dc 0e b1 3b
       0.037531946 0.01466016 0.0063902466 0.0054033827
0002e0 f9 c6 7b bc f7 54 19 bd d5 59 68 3c b3 53 dc ba
       -0.015367263 -0.037434544 0.014181574 -0.0016809612
0002f0 33 99 eb 3b 93 b1 c6 bc 43 1d b5 3c b0 42 09 bb
       0.0071898936 -0.024254596 0.02210868 -0.002094429
000300 08 a9 11 bb 3a 23 ed bb f0 81 03 3d 96 67 8b 3c
       -0.0022225995 -0.0072368653 0.03210634 0.017017167
000310 59 5c b1 3b 97 22 6b 3c 7d e1 af 3c 27 10 f2 bb
       0.00541262 0.014351509 0.021469826 -0.0073871794
000320 01 8a d0 3b 88 fc 4e bc eb 3b b3 3c 2a 32 86 3c
       0.0063641076 -0.01263345 0.021879157 0.016381342
000330 1b a8 4e bc 90 b5 2e 3d d1 ba 3e 3d 21 5e 0c bc
       -0.012613322 0.04265362 0.04656488 -0.008567364
000340 39 c1 80 3c df 2d d3 3c 72 a5 03 3d 9b 94 55 3d
       0.015717136 0.025778709 0.032140203 0.052143674
000350 d2 43 9e 3c 32 a2 fc 3b 5a 4a fc bb b9 54 61 3d
       0.019319449 0.007709765 -0.007699293 0.05501244
000360 67 41 93 3c 52 f0 78 bc 38 2d e9 bc 32 e8 5f 3b
       0.017975522 -0.015194016 -0.028463945 0.0034165499
000370 b0 29 64 bc 4b aa 64 bc 43 1d 80 bc 37 24 47 3d
       -0.013925955 -0.013956617 -0.015638953 0.04861852
000380 d5 f5 f1 b9 6b 24 8c bc 6d 33 cd bb 57 4f 07 3d
       -0.0004615026 -0.01710721 -0.006262234 0.03303465
000390 7b 6a ec 3c fe 1e 36 3d 12 2d b9 3b 60 2f 6f 3b
       0.028859368 0.04446315 0.0056511248 0.0036496744
0003a0 16 94 f5 3c 75 77 09 3d 23 f3 4d bd 27 d5 d0 bb
       0.02997784 0.03356119 -0.0502807 -0.006373066
0003b0 3f fc 19 3c 3b 94 1c bc 81 e7 53 3d d6 9f 4d 3a
       0.009398519 -0.009556825 0.05173445 0.0007843947
0003c0 fe 5a 5a bc ab 76 cf 3c fe 45 dd 3b f3 4f 5b 3c
       -0.013327358 0.02532514 0.0067527285 0.013385761
0003d0 2b 5f cc bc 60 8c 48 3c 09 a1 af 3c a2 4e d4 3c
       -0.024947723 0.012240499 0.021439092 0.025916401
0003e0 0a 07 6a 3c d4 bc 1b 3d 88 52 98 bc be f3 a3 bc
       0.014283905 0.038021877 -0.018594041 -0.020013686
0003f0 c4 f0 d1 3c 25 9c 7f bc 74 83 9a 3c 6c 94 fb 3c
       0.025627501 -0.015601193 0.01886151 0.030710422

cnn_net.3.bias f4 [32]
000000 0e 92 c2 bc b6 69 dc 3c 90 d9 b0 3c 49 d8 e7 3c
       -0.023751285 0.026905876 0.021588117 0.028301375
000010 85 de d4 3b 68 3b 16 bc e9 4c 05 3c 97 04 6d bc
       0.006496253 -0.009169437 0.008136013 -0.014466426
000020 cc 18 c2 3b bf de 87 3d 3c a7 57 bc 8b 2f 1e bd
       0.005923366 0.06634282 -0.01316243 -0.03861956
000030 e2 4a 1f bd bc df 71 3c 3e be b6 3a 5d de 91 3c
       -0.038889773 0.014762815 0.0013942195 0.017806226
000040 a5 ec f0 3a 0c 97 f3 bc 36 fd 95 3c 9d 74 89 bb
       0.0018381072 -0.02973511 0.018309217 -0.0041948096
000050 0a e1 64 3c a5 92 96 ba 61 4f 71 3c c3 fe 71 bc
       0.013969669 -0.0011487795 0.014728398 -0.014770213
000060 dd 2e f9 ba 50 14 d5 3c 55 d0 97 bc 92 b9 e2 3b
       -0.0019011159 0.026010662 -0.018531958 0.0069190944
000070 14 7b 9d 3b 80 56 8c 3c d8 f4 9b 3c c9 cb 1d 3d
       0.004805932 0.01713109 0.019037649 0.038524423

lstm_net.weight_ih_l0 f4 [200, 32]
000000 bd b8 81 bc a9 76 64 bb c5 ec fc 39 d3 5d ce 3c
       -0.01583516 -0.0034860766 0.00048241593 0.025191223
000010 bb f7 cf 3b 76 e5 05 3d 00 df 87 3c cd 1a 6d bc
       0.0063466704 0.032689534 0.016585827 -0.014471722
000020 0e c9 39 3c 64 a0 aa 3c 7e a7 fb 3c 71 03 0c 3d
       0.011339439 0.020828433 0.030719515 0.03418297
000030 ac ba 2f 3c 42 3f 5d 3c 47 68 ad 3c 35 30 8e bc
       0.010725658 0.013503851 0.021167887 -0.017356971
000040 9f 62 14 3b d2 64 62 3d c0 d2 c2 3c 5c 4e 40 39
       0.002264179 0.05527193 0.023782134 0.00018339738
000050 77 7d a6 bb 8f a1 5c bc f6 5f 18 3d 60 55 e7 3c
       -0.0050808745 -0.013466253 0.03720089 0.028238952
000060 f5 01 85 3c 3b 66 55 3a 9e 25 c8 bc 40 73 b8 bc
       0.016236285 0.00081405387 -0.024432 -0.022515893
000070 e9 2b 2d 3d 74 10 57 3c 43 6b bc 3c da d6 3f 3c
       0.042278204 0.013126481 0.023000365 0.011708939
000080 0c eb 05 bc 0a 2d 13 bc d0 52 dd bb 79 62 04 3d
       -0.008173715 -0.008982906 -0.006754257 0.032320473
000090 d3 f3 c2 3a a9 70 83 bb 9a b0 fb 38 eb 93 d2 3c
       0.0014873691 -0.004011233 0.00012001507 0.025705298
0000a0 9e 1c a1 bc 08 7f 2f 3d 3e 6f 1c 3c 40 4f 4d 3b
       -0.019666966 0.042845756 0.009548007 0.0031327754
0000b0 48 a6 13 3b 70 3f 6a 3c 5a 72 21 bb 2a 79 11 3d
       0.0022529531 0.014297351 -0.002463481 0.03551594
0000c0 a6 99 8c 3c 30 73 b6 3c ec 99 4f 3d 5a 3c f3 bb
       0.017163109 0.022271723 0.0506839 -0.007422966
0000d0 a3 42 26 3d d4 c5 67 3c 1e 31 1e 3b 83 fe 08 bc
       0.040590893 0.014146287 0.0024138163 -0.008361462
0000e0 30 ab db 3c 8c c5 9c 3c 43 4a 37 3d e6 9d 32 3c
       0.026815027 0.019137166 0.044748556 0.010901904
0000f0 60 63 1b bc 3b 56 c4 3c f1 ec a8 3c 71 a1 ba bc
       -0.009484142 0.0239669 0.020620795 -0.02278206
000100 b3 ae 0b bb 88 db cb 3c 78 ce e4 3c c6 90 da 3b
       -0.0021313846 0.024884954 0.027930483 0.0066700904
000110 5d 5f 31 3c 89 ac ca 3c 91 ed a7 3c 2b ef 00 3d
       0.010825959 0.024740474 0.020499023 0.03147809
000120 b1 a8 69 3d 53 50 17 3d 95 c9 1e 3d 3b 57 a4 3c
       0.057045642 0.036941838 0.038766462 0.020061126
000130 80 5f 78 bc 0a f9 62 3d c3 40 34 3d 2b 5c 9b 3d
       -0.015159488 0.055413283 0.044007074 0.07585939
000140 6c 2c 19 3d f8 d2 a0 3c f5 de 7a 3c c4 28 4c 3d
       0.03739588 0.019631848 0.015311946 0.049843565
000150 7a 37 23 3d 97 8e 41 3c 19 89 a2 3c 25 5d 8d 3d
       0.03984783 0.011813781 0.019840764 0.069025315
000160 22 b4 3f 3c 08 5c 7d 3d 05 15 55 3d 2b 5d 88 3c
       0.011700662 0.061855346 0.052022 0.016645988
000170 e6 a5 e3 3c 91 7e 23 3d 05 d7 85 b8 85 0c 11 3d
       0.027789067 0.039915625 -6.381985e-05 0.03541233
000180 9c 0b 14 3c c3 8f 0e 3d dc 90 99 3c a5 c7 bf 3c
       0.009035971 0.03480507 0.018745832 0.023410628
000190 c2 4d 51 3c 3e d3 17 3c 85 44 ac 3c 48 4d 47 3d
       0.012774887 0.009266673 0.021028766 0.048657686
0001a0 6a d2 0a 3d fe e9 d3 3c a9 5f cc bc 60 45 17 3d
       0.033892073 0.025868412 -0.024947958 0.036931396
0001b0 64 ef 3c 3c 49 6d a6 3c 3c c1 d9 3c a0 55 d9 bb
       0.011531685 0.020315783 0.0265814 -0.0066325217
0001c0 77 5e bb bb 34 f8 ac 3c c3 a7 16 3d 25 17 77 bc
       -0.005718048 0.021114446 0.036781084 -0.015081202
0001d0 85 76 55 3d 29 10 82 3c d4 c7 01 3b a2 91 85 bc
       0.052114982 0.015876846 0.0019802945 -0.016304795
0001e0 b4 30 49 3b dc 7e e4 b8 87 ae c3 b9 a7 33 88 bc
       0.0030699195 -0.000108955166 -0.0003732333 -0.016626192
0001f0 05 fb fc ba e5 ab 90 3c 29 68 03 bd 9b cc 77 3c
       -0.0019300884 0.01766009 -0.032081757 0.015124465
000200 cb 31 4c 3c 09 40 52 3c 83 58 a4 39 54 b6 dd 3c
       0.012463043 0.01283265 0.00031346464 0.02706448
000210 ea cc 91 3c 32 e2 89 3c 0d cc e3 3c 5b d2 35 3c
       0.017797906 0.016831491 0.02780726 0.011097516
000220 24 4a b8 bb 31 d4 d9 3c da 77 53 3c b4 d8 88 3c
       -0.0056240726 0.026590439 0.012906993 0.016704895
000230 2a 34 ab 3c 29 6f a8 3b ec af 6c 3d d2 0f 8f bc
       0.020898897 0.0051402044 0.05778496 -0.017463598
000240 b4 f3 f2 3b 2b d3 fe bb 1c fa ee 3c 71 85 ca 3c
       0.0074143056 -0.007776638 0.029171996 0.024721833
000250 10 1e 1f 3b 75 5e e4 3c 32 be ea 3b e2 a2 0a 3d
       0.0024279393 0.027877072 0.0071637863 0.033846743
000260 3d 88 7c 3c 31 18 26 bc 29 58 7f bc 2d 8c 96 3d
       0.015413341 -0.010137604 -0.015584984 0.07350955
000270 af 6d d8 bc 36 87 15 3d 0e a2 00 3d 27 a2 91 bc
       -0.026419489 0.0365059 0.031404547 -0.017777516
000280 d8 59 e2 3c 18 63 c7 3c a0 07 8c 3d 83 07 1f 3d
       0.027630731 0.024339244 0.06837392 0.038825523
000290 51 f8 96 3c d5 1c 99 3c 36 df 3c 3c 05 ef 93 3d
       0.018428953 0.018690506 0.011527827 0.07223324
0002a0 1b 3f e3 3c d4 32 02 3d c9 75 08 3c d6 8d 99 bc
       0.027740052 0.031786755 0.008328863 -0.01874439
0002b0 6e 48 16 3d 1f 14 2c 3d 58 f6 0a 3c 2f 5d 1d 3d
       0.036690168 0.042011376 0.0084815845 0.038418945
0002c0 93 fa 94 3c 23 3a 7a 3d cc ab 3f 3c a5 de 41 3c
       0.01818589 0.0610906 0.011698674 0.011832868
0002d0 99 e8 63 3d 9c b0 cc 3c df eb 95 3c f4 c0 dd 3c
       0.055641744 0.024986558 0.018300949 0.027069546
0002e0 d0 2f 5c 3d ab 49 35 3c 28 77 05 3d 08 26 18 3d
       0.053756535 0.011064927 0.03258434 0.037145644
0002f0 58 a2 ff 3c 76 d0 9d 3c 95 f1 47 3d 6c 74 2b bb
       0.031205341 0.019264441 0.048814375 -0.0026161922
000300 af 9c d7 3a 52 9b dc 3b e7 c6 b6 3c 21 2a 36 bc
       0.0016449894 0.006732383 0.02231164 -0.011118443
000310 cb b8 0e 3d 1d 51 c1 3c b7 0d 20 3c ff 51 44 3c
       0.0348442 0.023598248 0.009768895 0.01198244
000320 5e 51 5d bc a7 e8 21 3c 0e 3b 13 3d 2d f1 2e 3b
       -0.013508169 0.009882129 0.03594499 0.0026694045
000330 b1 fe 44 3d 17 d9 86 3c 7c d0 10 3c a8 b6 9d 3c
       0.048094455 0.016460938 0.008838769 0.019252136
000340 6b 0f 18 3d 4a ca 46 3c bf 6c 4e bb d2 c1 38 bc
       0.03712408 0.01213319 -0.0031497923 -0.011276679
000350 96 13 f3 3a 05 9a 05 3d 5d 43 a5 3c 86 81 11 3d
       0.0018545266 0.032617588 0.020173723 0.035523914
000360 ca cc a2 3c 8e 90 ab bc 59 93 7a 3c 39 b6 da ba
       0.019873042 -0.020942952 0.0152939195 -0.0016686387
000370 bc 27 4e 3c 8b ea da 3c c3 06 6b 3c 68 9b 81 3c
       0.012582716 0.026723167 0.014344874 0.015821174
000380 63 31 8a 3c fd e1 20 3d 07 da b3 ba 14 4b 88 3c
       0.016869253 0.03927802 -0.0013721593 0.016637363
000390 80 dd 19 3d f0 ab 74 3c 58 86 44 3c 8a 92 51 3c
       0.037564754 0.014933571 0.011994921 0.012791285
0003a0 a7 43 27 3c 2d a0 a1 3c 23 64 02 bc 30 3d 47 3c
       0.010209001 0.019729698 -0.007958445 0.012160584
0003b0 c3 e3 66 3b 63 10 70 3c e9 9e 42 bb bc 76 a5 bc
       0.0035230971 0.014652344 -0.0029696769 -0.020198219
0003c0 c2 7b 21 3d b5 52 a0 3b 64 5a c7 bc fe 3b 80 3c
       0.039424665 0.004892672 -0.024335094 0.015653607
0003d0 3b 05 50 3d 91 ae e7 bb 1d ec 2e 3c 99 35 3f 3c
       0.05078624 -0.0070703705 0.010676411 0.0116704935
0003e0 88 b0 d5 bb 49 31 a1 3a ab 85 ac 3c c7 b2 04 3d
       -0.0065212883 0.0012298013 0.021059832 0.032397058
0003f0 2a 7b 08 3d 6f 0e 5f 3d 8c f6 22 ba 98 e3 92 bc
       0.033320583 0.054457124 -0.0006216548 -0.01793079

lstm_net.weight_hh_l0 f4 [200, 50]
000000 1a e6 eb 3c d5 d3 4e bc 26 9d 42 bc 24 3d 03 bc
       0.028796244 -0.012623747 -0.011878287 -0.0080101825
000010 ed 7c 62 bc 5d 08 13 3c d1 75 3c 3c 89 ba 3e bc
       -0.01382373 0.008974162 0.011502699 -0.011641153
000020 05 82 23 3d 55 2f bf 3c 57 a1 a0 3c 7b 45 95 3c
       0.03991892 0.023338 0.019608183 0.018221607
000030 a4 45 a4 bc 27 be 7d 3c b0 a5 a7 bc 16 b6 c3 3c
       -0.020052738 0.01548723 -0.020464748 0.023890536
000040 24 95 c0 3c f9 27 0b 3d 13 42 aa bb ab d6 1a 3c
       0.023508616 0.033973668 -0.005195865 0.009450595
000050 2e ac 2e 3a 51 55 5e 3d d5 98 4d 3c c7 2f 9f 3c
       0.000666323 0.054280583 0.012548645 0.019431962
000060 e9 08 27 3c 73 78 bd 3c 17 72 0c bc b7 9c d6 3c
       0.010194995 0.023128724 -0.008572123 0.026197774
000070 74 f9 70 3c 8b 63 8d bc 1d 22 6c bb da 36 c4 bc
       0.014707912 -0.01725938 -0.0036031075 -0.023951937
000080 da d2 4f 3c bc a4 8d 3c 6f 5b df 3c ae 2c ed 3c
       0.012684548 0.017290466 0.027265279 0.028951969
000090 2f 93 5c 3b 00 b6 19 3c 30 ef 1f 3c 64 e3 0f 3c
       0.0033657064 0.009381771 0.009761617 0.0087822415
0000a0 cd 92 4c 3c 0a 52 02 3c 0e 41 8c 3c 57 fb df bc
       0.012486172 0.00795413 0.017120864 -0.027341528
0000b0 82 13 8e bc 22 c2 30 3d 97 c4 2e 3c 83 12 86 bb
       -0.017343286 0.04315389 0.010666988 -0.0040915622
0000c0 95 0e af 3c d2 fd 97 3b bb 2b 4f 3c 73 a6 06 3d
       0.021369258 0.004638412 0.0126447035 0.032873582
0000d0 33 29 d1 3c 12 4a 00 3d 82 cf e4 3a df e7 a6 3b
       0.02553234 0.03132064 0.0017456862 0.005093559
0000e0 fb 16 ba 3b 1b ae 23 3c ce 9a 51 3d 01 8d a5 3c
       0.005679009 0.00999024 0.051173024 0.020208837
0000f0 42 ca 10 bd 08 c3 ae 3c e4 f6 06 3d f3 dd 25 3c
       -0.035349138 0.021333233 0.032950297 0.010123718
000100 c3 a5 1e 3d 0f 62 95 bc c0 2b ec bb 95 09 9c bc
       0.0387323 -0.018235235 -0.007207364 -0.019047538
000110 b6 49 b8 bb 13 70 db 3c 94 07 8a 3c 97 22 83 bc
       -0.0056240214 0.02678684 0.016849317 -0.016007705
000120 4b 76 85 3c 01 b5 ae 3c ad 5a 1a bb 35 36 d7 bb
       0.016291758 0.021326544 -0.0023552582 -0.0065677413
000130 4b 0e 48 bd 79 a9 27 3b cc 9c 17 bd 5c 22 8a 3c
       -0.048841756 0.0025583191 -0.037014768 0.016862087
000140 a6 2d 9c bb 8f e2 92 3c 78 f7 87 bc 16 90 34 3d
       -0.004766184 0.017930297 -0.016597494 0.044082724
000150 eb 7b 12 3d b2 e1 77 bb ca ee bd 3b 0d af f2 3c
       0.03576271 -0.0037823734 0.005796288 0.029624486
000160 90 0d 77 3b 93 ac 39 3c 34 b4 af 3b 56 f1 0b 3d
       0.0037697293 0.011332649 0.005362058 0.034165703
000170 ef 7a cd 3b 61 65 23 bc db 6b 0c bb 53 66 be 3b
       0.0062707583 -0.009972901 -0.0021426592 0.005810538
000180 f9 d9 63 bc 87 a1 0c 3d 01 1a 9f 3c 39 7b 20 3d
       -0.013906949 0.034333732 0.01942158 0.039180014
000190 ae 90 c5 bc ed f0 d4 bc b8 d1 2c 3c 99 09 af 3c
       -0.02411684 -0.025993789 0.010548048 0.021366881
0001a0 80 33 b6 bb 99 39 a8 bb d0 22 a2 ba b7 a6 bf 3c
       -0.0055603385 -0.0051338193 -0.0012369994 0.023394926
0001b0 76 50 79 3c ea 53 41 3d f7 5c 86 bb b5 2d d8 3c
       0.015216937 0.047199167 -0.0041004377 0.026388982
0001c0 15 71 f6 3c ba a6 91 3c ed 7c 81 bc 61 0c 24 3d
       0.030083219 0.017779697 -0.01580664 0.040050868
0001d0 ee f7 aa bc 1f 96 ef bb c8 7d 15 3d 31 ad 57 bc
       -0.020870175 -0.007311597 0.036496907 -0.013163851
0001e0 01 3f a9 3c e8 d3 88 3c 3d ac 94 3c e4 53 23 bb
       0.020659925 0.016702607 0.018148536 -0.002492183
0001f0 6c fb 15 3d 37 51 38 bc c3 4d 7c 3c b0 60 ac 3b
       0.036616728 -0.011249832 0.015399399 0.0052605495
000200 06 1a 55 bb 65 30 aa 3c 62 80 f6 3b 40 8f 04 3d
       -0.0032516732 0.02077503 0.0075226286 0.032363176
000210 5d 65 3f 3c 7e 6c b7 bc 68 68 0c 3d f8 e9 8a 3c
       0.011681882 -0.0223906 0.034279257 0.016957268
000220 90 22 aa bc c1 82 0b bc 3d 47 81 3c 9f 17 5e 3c
       -0.020768434 -0.008515061 0.01578104 0.013555436
000230 54 d8 0d 3d 52 e0 b4 3c 6e 37 fb 3c f0 dc f4 bb
       0.034630135 0.02207962 0.03066608 -0.007472627
000240 fb 9f b9 3c ba 73 16 3d 82 e6 4f 3a 71 f4 83 3b
       0.022659292 0.03673146 0.00079307717 0.0040269424
000250 3a c5 eb 3b 0c 10 cb 3c 7d 94 f8 bb 09 4b 90 3c
       0.007195142 0.024787925 -0.0075860606 0.017613905
000260 a7 0a d0 3c 0b 5e 0a 3d 51 77 15 3c c7 7b e5 3b
       0.025395704 0.033781093 0.0091226855 0.007003281
000270 75 9a 93 bc fc c0 df 3c 39 17 9f 3c 81 b0 0d 3c
       -0.018017987 0.027313702 0.019420253 0.008648039
000280 88 4c d1 bc f5 41 1d 3d 9f 3e 9c 3c 2a b2 2f 3b
       -0.025549188 0.03839298 0.019072829 0.0026809075
000290 4f 87 9b 3a 0c a6 5e 3c d5 1e d2 3c 5d 8e f7 3b
       0.0011865887 0.013589393 0.025649467 0.007554813
0002a0 f0 05 bd 3c 00 8d 66 3d a1 5b 26 bc ba 6c 14 3d
       0.02307412 0.05628681 -0.010153682 0.036236502
0002b0 d8 9d 8f 3c e3 5b 23 3c d8 3a 01 3a 74 23 a4 3c
       0.01753132 0.009970638 0.0004929728 0.020036437
0002c0 ae 30 83 3b a6 9c 29 3c 5b f9 d5 bb ff 69 f9 3c
       0.004003606 0.010352289 -0.0065299696 0.03044605
0002d0 e6 63 d3 3c 8b f2 0d 3d c3 44 39 bc 03 ee f1 3c
       0.025804471 0.034655135 -0.011307898 0.029532438
0002e0 25 1b 0f 3d 07 00 1a 3c f1 43 09 bd ab 92 cd bc
       0.034937996 0.009399421 -0.03351206 -0.02509435
0002f0 6e 97 2a 3d 88 6c f3 bb b6 c4 2e 3c 64 0b af ba
       0.04164832 -0.0074287094 0.010667017 -0.0013354835
000300 db 7c 10 3d 64 9b 0b 3c 63 9e bc 3c 7e b8 75 3c
       0.03527532 0.008520935 0.023024743 0.0149976
000310 ac f5 a0 3c 85 55 05 3c c9 e1 98 3c e1 51 9e bb
       0.019648395 0.008138065 0.01866235 -0.004831538
000320 5d 18 f8 bc 56 96 42 bc 9f 67 14 3c 55 d7 40 3d
       -0.030285055 -0.011876663 0.009057908 0.047080357
000330 4b 9d ad 3c af 64 64 3b c3 9d 24 3d 9c 30 a7 3c
       0.021193167 0.003485005 0.040189516 0.020408921
000340 ac 57 1c 3d e3 4a cb 3b d8 2c aa 3a 3d e9 90 3c
       0.038169548 0.0062039956 0.0012983335 0.017689342
000350 a3 3c fb ba 63 c4 f5 bc 5a 5b d3 bc f6 f7 ea 3b
       -0.0019167851 -0.030000871 -0.025800396 0.0071706725
000360 35 f9 bc 3b f1 a9 4e 3d 05 c8 76 bb 6f fd d7 3b
       0.0057670125 0.050455038 -0.0037655842 0.006591491
000370 f1 e6 3c 3c fd 22 62 3c 96 ea 4b 3c 1c 24 ff 3c
       0.01152967 0.013802287 0.012446066 0.031145148
000380 fe b8 e6 3c 33 2f 8a 3c d9 8a 6e 3b 2c 03 90 3c
       0.028164383 0.01686821 0.0036398678 0.017579637
000390 be db 0f 3d b4 04 de bb 29 45 03 3d 7f bf e1 3c
       0.03512167 -0.006775463 0.03204838 0.027557133
0003a0 9f 5f 4e bc 9a 78 d3 3c 09 a5 ef 3c 51 fc 90 3b
       -0.01259604 0.025814343 0.0292535 0.0044246097
0003b0 cd e3 b7 3b 15 2a e2 bb f5 ce a4 3c 6b 29 26 3d
       0.0056118728 -0.006901989 0.020118216 0.040566843
0003c0 7f f2 27 3d 83 cf 99 3c e7 c4 41 3b 1c e9 83 bc
       0.041002747 0.018775707 0.0029566826 -0.016102366
0003d0 13 08 a5 3c a2 72 08 3c e3 cf 30 bc 65 b2 00 3c
       0.020145452 0.008328112 -0.010791752 0.007855033
0003e0 d9 44 67 3b 98 43 e9 36 92 2b 03 3d 75 2a 4e 3c
       0.003528884 6.95181e-06 0.032023974 0.012583365
0003f0 7f 43 5e 3d b9 aa 8a 3c 3f 11 d6 bb 43 5a 05 3d
       0.054263588 0.01692711 -0.0065328176 0.032556783

lstm_net.bias_ih_l0 f4 [200]
000000 94 dc 32 3d 81 66 60 3b 68 a5 94 3c 5b 71 7a 3b
       0.04366739 0.0034240785 0.018145278 0.0038214538
000010 ec 71 bc 3c a7 75 37 bd 5d 3e 6c bc 3e ec 3f 3d
       0.023003541 -0.044789936 -0.014419165 0.046856157
000020 4d 25 dc 3a 08 c3 bb 3c c0 08 59 3c 90 ba 3b 3d
       0.0016795784 0.022920147 0.013246715 0.045832217
000030 0c 93 9c 3c 11 a5 98 3a 20 02 f9 ba f6 8b 49 bc
       0.019113086 0.0011645873 -0.0018997826 -0.012301436
000040 e0 ff 7e 3b 0e 65 02 3d db fa b5 3c 96 15 58 3c
       0.0038909838 0.031834655 0.022214344 0.01318874
000050 e8 17 aa 3c 46 d2 e3 3c 42 31 16 bb 90 5a 9f 3c
       0.020763353 0.027810227 -0.0022917544 0.019452363
000060 df e2 29 bc 1f f7 56 bc a0 1f b7 3c 4a 00 f3 3a
       -0.010369032 -0.013120442 0.022353947 0.0018539515
000070 df ed de 3b a3 72 98 3c cc 8b bb 3c d6 6e 4a 3c
       0.006803259 0.01860935 0.022893809 0.012355527
000080 18 5c 1d bd 33 44 0d 3d a2 47 55 3d f0 1f 0d bc
       -0.038417906 0.034488868 0.052070267 -0.0086135715
000090 16 33 dd bc 65 1d 49 3c 33 3d 73 3c 9e 9e 3d 3d
       -0.027001899 0.012275075 0.014846134 0.046293847
0000a0 0d b8 0e 3d 83 17 8b 3c 62 18 72 bc b5 3d e0 bc
       0.034843493 0.016978985 -0.014776321 -0.027373174
0000b0 d6 71 4b 3c e0 16 d0 3b 69 31 a1 3c 34 7d 6b bc
       0.012417277 0.006350383 0.01967688 -0.0143731125
0000c0 fd 95 01 3c 51 5e 57 3c 60 42 56 bc 1b d8 fe 3c
       0.007909295 0.013145045 -0.0130773485 0.031108906
0000d0 02 c6 4b 3c fd 4c 5f 3c a2 27 5b 3a bf ef fb 3b
       0.012437345 0.013629195 0.0008360093 0.007688492
0000e0 b1 5e 3c 3d 2c 62 52 3c 77 63 4b 3c 5f a2 13 3d
       0.045988742 0.012840789 0.012413851 0.03604352
0000f0 55 cb 94 bc 6c 6e b0 3c 93 97 50 3d 8f 9c 0b 3d
       -0.018163363 0.021537028 0.050925802 0.034084853
000100 64 a8 dc 3c 9d d2 29 3d 49 d5 03 3d 57 18 c7 3c
       0.026935764 0.041460622 0.032185826 0.024303598
000110 b6 7d 77 3c f0 7e d6 39 75 9e 01 bc 83 96 74 3c
       0.015105655 0.00040911837 -0.007911314 0.014928463
000120 1c a4 e7 bb 23 f0 4a 3b d9 73 3f 3d 1e d4 aa bb
       -0.007069124 0.0030965887 0.04674134 -0.0052132746
000130 3b d4 5c 3c 29 a2 63 3d c8 d4 4b bc b4 44 b0 bb
       0.013478334 0.05557457 -0.012440868 -0.005379284
000140 50 e2 7a 3c 4f 5c 68 3c 9a 8e ae 3c ee be 07 3d
       0.015312746 0.014182164 0.021308232 0.03314107
000150 ff 3a 92 bc e5 79 bd 3c e7 10 d7 3c bb 79 03 3b
       -0.017850397 0.023129413 0.026253177 0.002006157
000160 14 72 18 3c 48 21 62 ba 0a 23 08 3d 35 4a ad bc
       0.009304542 -0.0008626175 0.03323654 -0.021153549
000170 58 a3 4f bb e9 f5 3a bc f3 db 1b 3d db de 8b 3c
       -0.0031683054 -0.011411169 0.038051557 0.01707404
000180 00 1c 7e 3d 16 e3 d2 3c 07 3b a5 3c 8c c4 0e 3c
       0.06203842 0.025743049 0.020169748 0.008713853
000190 ea 48 ee bc e6 c4 3f 3d 6d 7a 1c 3b 94 4b 8e ba
       -0.029087503 0.046818636 0.0023876682 -0.0010856264
0001a0 9a a1 d8 3c ac f1 47 3d 9b ef 44 bd d1 f0 32 3d
       0.026444245 0.04881446 -0.048080068 0.04368669
0001b0 c0 67 03 3d b5 33 01 bc 52 93 e6 bc 7e 72 40 ba
       0.032081366 -0.007885863 -0.02814642 -0.00073412794
0001c0 44 6a 23 3d 87 1f 90 3a 67 e6 93 3c 93 b8 02 bd
       0.039896265 0.0010995724 0.0180542 -0.031914305
0001d0 6e b7 4f bc a0 22 45 3c 12 f7 6f 3c fb b9 d2 bc
       -0.01267801 0.012032181 0.0146463085 -0.025723448
0001e0 19 0e 53 bc ae ec 86 3c 23 89 ee bc 20 37 b1 bc
       -0.012881779 0.01647028 -0.029118126 -0.021632731
0001f0 f2 86 e8 bc 32 cc 33 3c 61 bb ad 3c 88 5c c7 3c
       -0.02838466 0.010973977 0.021207513 0.024336115
000200 a4 0b 1b 3c 1a 6d a5 3c 08 72 41 3c 9c ff 38 3c
       0.009463225 0.020193625 0.011806972 0.011291411
000210 71 86 c2 3c b9 df 03 bd 83 c1 e6 3c 14 1c e4 3b
       0.023745747 -0.03219578 0.028168445 0.006961355
000220 df 59 3b bc 4e 0b 85 ba db 83 d1 3c 09 2c 91 3c
       -0.011435001 -0.0010150464 0.025575569 0.017721193
000230 f1 4b cf 3a 06 cc 23 3d 42 ce e5 3c 10 c5 1d 3d
       0.0015815479 0.039989494 0.028052453 0.03851801
000240 0e 36 e8 bc 26 11 05 3c e5 45 1f bd 5f ba 4c 3d
       -0.028346088 0.008121764 -0.038885016 0.049982425
000250 9e 57 e2 3c a2 15 dd 3c 3f ae ed 3c d3 9a 89 bb
       0.02762967 0.026987854 0.029013751 -0.0041993647
000260 ec a8 b9 3c b4 51 c1 3b a9 b2 0e bd 53 ab a3 3c
       0.022663556 0.0058996323 -0.034838352 0.019979155
000270 fd f6 07 3c 2b 54 03 3d 07 7f 33 3d 19 bb ec 3b
       0.008298633 0.03206269 0.043822315 0.007224452
000280 dd 04 c4 bc 51 ef 75 3c 6e cb 98 3b 85 e5 24 3d
       -0.0239281 0.015010671 0.0046629226 0.04025795
000290 f3 fe 41 bb 92 7e c7 bb d9 e6 98 bc cb b6 89 bc
       -0.0029601424 -0.0060880864 -0.018664764 -0.016810795
0002a0 4c 38 92 ba 0a b0 0e 3d fb f6 62 3b ca 8b a2 3c
       -0.0011155694 0.034835853 0.0034632075 0.019842047
0002b0 ed 18 06 bc a4 63 15 3d 2e 0a 80 bb c9 cc d4 3c
       -0.008184654 0.036471978 -0.0039074635 0.025976555
0002c0 cb f0 80 39 85 d1 e7 3c 1d 18 be 3b d3 a7 06 3c
       0.00024593467 0.028298149 0.0058012144 0.008218723
0002d0 41 71 93 3c 83 e4 b6 3c 3f 52 b5 bb 75 2a a5 3b
       0.01799834 0.02232576 -0.005533486 0.0050404617
0002e0 df 54 21 3c 73 ee 30 3c cb 97 c8 3c c9 b4 02 3d
       0.009846895 0.010799038 0.024486443 0.03191069
0002f0 92 79 75 bc 1e 2d 2b 3b 82 c0 fd 39 77 61 50 bc
       -0.014982598 0.0026119421 0.0004839935 -0.01271855
000300 b7 9b 8f 3c bd 8a 61 3c 68 df 49 3c f6 1e 9e 3a
       0.017530305 0.013765988 0.012321331 0.001206367
000310 e0 16 1f 3c 14 46 a1 3c c3 78 df 3c 08 30 f0 3a
       0.009710044 0.019686736 0.027279263 0.0018324861

lstm_net.bias_hh_l0 f4 [200]
000000 4e d9 7c bc 89 c1 79 bc 65 28 8c 3b 72 b8 b5 3b
       -0.015432669 -0.015243896 0.0042772763 0.0055456692
000010 ca 03 57 3d 3f bd 25 3b 02 ed 3e 39 33 e1 f9 3c
       0.052493848 0.0025289801 0.00018208104 0.030502891
000020 29 7a 46 3c ea dd db bb 7d aa 80 3c 2a 32 db bb
       0.012114086 -0.006709804 0.015706295 -0.0066893296
000030 f0 6e 98 3b c8 c7 e4 3c cd 7c 6e 3c fe 86 af 3c
       0.0046518967 0.027927294 0.014556122 0.021426674
000040 1d f3 5f 3c bb 37 ca bc a4 04 69 bc be 1a 93 3b
       0.013668803 -0.024684777 -0.014222298 0.004489272
000050 13 5b da 3c 56 62 cc bc 85 04 10 3b 93 09 8d bc
       0.026654756 -0.024949234 0.002197535 -0.01721648
000060 10 00 94 3c 2f 7e 27 3d c3 be 8d 3c 9f 09 24 3d
       0.018066436 0.040891822 0.017302876 0.040048238
000070 f3 b0 06 bc 5a cc 47 3c 98 e9 da 3a 0f 1a 13 bc
       -0.008220899 0.012194717 0.0016701696 -0.008978381
000080 2a ef 94 bc 96 ba 3c bb 3b 13 0b bc 5a 6f d8 bc
       -0.018180449 -0.0028797737 -0.008488472 -0.026420284
000090 b0 dd 76 3c 16 16 1d 3d 10 ae 1c 3d ed 64 16 3d
       0.015067503 0.03835114 0.038251936 0.036717344
0000a0 5b a2 31 3c 40 ff ed bc b6 95 8e 3c 77 af d0 3c
       0.010841931 -0.029052377 0.017405372 0.025474293
0000b0 b8 59 98 3c 0c 50 9b 3c bf 74 98 3c 07 55 25 3c
       0.018597469 0.018959068 0.018610356 0.010091073
0000c0 03 21 05 bd 49 e8 46 3d bf 00 19 3d 31 66 97 3a
       -0.032502186 0.04856137 0.037354227 0.0011550841
0000d0 d6 e6 3a 3d 98 17 11 3c f2 96 f9 3b bb b3 1e 3d
       0.0456303 0.008855723 0.007616871 0.038745623
0000e0 9e 38 0c 3d 48 f6 22 3d 3f b1 c3 bc cc c9 4f 3b
       0.03423368 0.039785653 -0.023888228 0.0031705974
0000f0 65 e5 36 3c 97 83 c0 bc 62 5a 36 bc df 8d 2a 3d
       0.01116309 -0.023500247 -0.011129947 0.041639205
000100 b4 11 ae 3c 13 83 04 3d 0a 32 77 3d 40 e2 a8 3c
       0.021248676 0.032351565 0.060350455 0.020615697
000110 7f 65 60 bc 46 6c ea 3a 98 e7 14 3c c9 70 b9 3c
       -0.013696074 0.0017885051 0.009088419 0.022636788
000120 a3 43 01 3c 04 30 06 3b 77 66 f2 bc be be fa 3c
       0.007889661 0.0020475397 -0.029589875 0.030608531
000130 e3 84 47 3c ff fe 45 3d f0 03 17 3c 93 86 28 bc
       0.012177679 0.048338886 0.009217247 -0.010285991
000140 43 75 b6 3c c7 b8 c3 3c d7 25 19 3a d4 99 8d bc
       0.022272712 0.02389182 0.00058421254 -0.017285265
000150 87 f9 99 bb 54 e2 5f bc 66 1b 44 3d 7d a3 95 3c
       -0.0046989354 -0.013664801 0.04787769 0.018266434
000160 7f 9a ba bb 58 8c c7 3b 9c 0d ac bc a1 90 0a 3d
       -0.005694687 0.0060897283 -0.021002583 0.033829335
000170 4b 85 5a 3d db 03 7f 3b 09 39 29 ba 7e f4 ef 3b
       0.053349774 0.003891221 -0.0006455337 0.007322847
000180 cc 37 ef bb b5 4c c6 3c bb eb 06 3c 69 b7 00 3d
       -0.0073003527 0.024206499 0.008234913 0.031424914
000190 19 c1 58 3b cc 5a c1 3c af 10 39 3c cf 1f 39 3d
       0.003307408 0.023602866 0.011295482 0.04519635
0001a0 e9 20 cf 3b 75 72 7b 3c cb 9a cd bb 33 61 d5 3b
       0.006321062 0.015347113 -0.0062745563 0.006511831
0001b0 08 0f 64 3d 95 20 31 3d ee 7a 5b 3c b7 fe 4c 3c
       0.055678397 0.043243963 0.013396008 0.012511901
0001c0 76 40 14 3d ec 2d 25 3c 7a 5a 08 ba 2e 20 9d ba
       0.036194287 0.010081749 -0.00052014703 -0.001198774
0001d0 55 f5 6b 3b 62 43 86 bc 48 0a aa bc 60 f0 64 3b
       0.0036004384 -0.016389553 -0.020756856 0.0034933314
0001e0 f8 58 29 bc ef 49 c3 3b 39 b4 91 3c 14 66 c4 bb
       -0.010336153 0.0059597413 0.017786132 -0.005993614
0001f0 ab 39 32 bb 00 dc a2 3c 39 29 24 3a 35 95 26 3c
       -0.0027195017 0.019880295 0.0006262246 0.01016741
000200 11 8b 21 3d de 8b c4 3b d3 9c db 3c b5 86 8c bc
       0.039439265 0.005998119 0.026808178 -0.017154077
000210 b4 21 02 3d 06 21 12 3c 60 f7 ef bc b9 ac b0 3c
       0.031770423 0.008919006 -0.029292762 0.021566736
000220 12 4f bb bc 53 b5 bd bb a9 ad cd 3b 7e ee 13 3c
       -0.022864852 -0.005789438 0.0062768054 0.009029029
000230 e3 dd 84 3c 9e 96 cf 3c 94 b0 27 3d 9e d6 af bc
       0.016219085 0.025340375 0.040939882 -0.021464642
000240 d8 04 cd 3c 2c a4 43 3d c1 5f 78 3d e1 77 0a 3d
       0.025026724 0.04776399 0.060638193 0.03380573
000250 af 69 51 bb 99 36 53 bb e3 04 ed 3b c6 74 9c 3c
       -0.0031953861 -0.0032228588 0.0072332486 0.01909865
000260 d9 33 c4 3c a4 f3 2d 3c 64 71 c3 3c 21 32 15 3c
       0.023950504 0.0106171705 0.02385778 0.00910619
000270 a7 22 01 bc db c7 d4 3c c5 87 a8 3c ed 15 94 3c
       -0.007881797 0.025974205 0.020572552 0.018076861
000280 85 9f 2b 3d 57 e9 a9 3c 73 fa e6 bb 1d 07 f9 3c
       0.041900177 0.020741148 -0.007048899 0.0303989
000290 5f c3 05 bc e7 01 82 3b b7 e0 20 bc 87 9d be 3c
       -0.008164256 0.003967512 -0.009819201 0.023268474
0002a0 69 02 9b 3c 36 98 10 bd 0c 2a bf 3c d1 42 5d bc
       0.018922048 -0.03530141 0.02333548 -0.0135047
0002b0 e0 36 8d 3c 9d db 0b 3c 47 3f 29 3d 2a ef 8d 3c
       0.01723808 0.008536247 0.04132011 0.017325956
0002c0 48 73 5a 3c 7b 5e 88 3c 08 56 72 3d 41 e2 2c bc
       0.013333149 0.016646614 0.059164077 -0.01055199
0002d0 0b f1 a0 bc cd 82 ad 3b 8f a2 87 bc aa 64 a6 3c
       -0.019646188 0.0052951337 -0.016557006 0.020311672
0002e0 28 ce 42 bb 12 11 16 bd b8 d9 f2 bc 2e de ba 3b
       -0.002972493 -0.036637373 -0.029644832 0.0057027554
0002f0 36 bb 04 3d 90 6e 8b b9 e4 e1 2b 3d e1 d7 e7 bc
       0.0324051 -0.00026594521 0.041963473 -0.028301181
000300 6c ca bb 3b 41 db 90 3c 76 5f 27 ba 7e 57 01 3d
       0.0057309177 0.017682673 -0.0006384769 0.03157758
000310 d9 01 15 3c 4c fd 2e 3d 67 aa fe 3c be 88 ae 3c
       0.009094679 0.04272203 0.031087114 0.021305438

lstm_net.weight_ih_l1 f4 [200, 50]
000000 a0 8f 83 3d d1 8a 55 3d b7 cb bc 3c 2c 35 4f 3d
       0.06423879 0.05213434 0.023046358 0.050587818
000010 68 49 3a 3d 22 79 81 3c 62 a8 56 3d 60 36 19 3d
       0.045480162 0.015804831 0.052406676 0.03740537
000020 c3 df 45 3d 96 83 02 3d 66 f4 74 3d 90 d2 26 3d
       0.0483091 0.03186377 0.05980339 0.04072815
000030 7f aa 3d 3d 20 53 e6 3c cb 6f 54 3d 30 78 8e 3c
       0.046305176 0.028115809 0.051864427 0.017391294
000040 c3 93 b3 3c 07 7b 47 3d 4f 09 8c 3d fe 43 83 3c
       0.021921044 0.048701312 0.06837713 0.016023632
000050 92 52 36 3c 9b a6 8d 3b dc e6 eb 3c 51 29 a7 3d
       0.011128085 0.0043228394 0.028796606 0.08162177
000060 79 ea 50 3d 8b c6 3d 3d 48 da 83 3c 86 7d f2 3c
       0.05100486 0.046331923 0.016095296 0.02960087
000070 f0 4b 58 3d 4a 46 25 3d 0a f5 f2 3c ff ee 22 3a
       0.052806795 0.040350236 0.02965786 0.0006215423
000080 d3 37 62 3c c2 46 0a 3d 7f a5 05 3d c1 7b 43 3d
       0.013807255 0.033758886 0.032628532 0.047725443
000090 4b 4a fe 3c d0 33 44 3d 83 9c 80 3d 4f d5 49 3d
       0.031041285 0.047900975 0.06279852 0.049275693
0000a0 a5 4e 57 3d 33 2a c9 3a 1d 68 fc 3c 92 f4 2b 3d
       0.052565236 0.0015347659 0.030811364 0.041981287
0000b0 06 c8 21 3d 7e 2b ca 3c 90 f1 8e 3d 30 1e 83 bb
       0.039497398 0.024678942 0.06979668 -0.0040014014
0000c0 e0 85 60 3d 25 e1 0a 3d 92 23 ee 3c 22 17 68 3d
       0.054815173 0.03390612 0.029069696 0.056662686
0000d0 3e 63 e7 3c ba 5c 5f 3d 0a f1 17 3d d0 ba 3e 3d
       0.028245565 0.05453179 0.037095107 0.046564877
0000e0 0b 4f ff 3c ca b1 44 3d 50 99 69 3d 77 30 04 3d
       0.03116562 0.048021115 0.057030976 0.032272782
0000f0 c9 a5 e0 3c 5a f2 38 3d c4 92 01 3d e7 89 a0 3d
       0.027422803 0.045153 0.031634107 0.07838803
000100 eb 0a 0f 3d c6 cf 2d 3d 14 ca 4d 3d 59 a1 4c 3d
       0.03492252 0.042434476 0.050241545 0.04995856
000110 1b c1 6b 3d b6 fb bd 3c dc b7 73 3c 22 fc 33 3d
       0.057557207 0.023191314 0.014875378 0.043941624
000120 96 ab 8b 3c b4 c6 04 3d 8d 6d 13 3d 57 c5 d4 3c
       0.017049592 0.03241606 0.035993148 0.025973005
000130 8b d1 3b 3d d3 2c 2c 3d 71 bb 70 3d 25 47 99 3c
       0.045854133 0.042034935 0.058772508 0.018710682
000140 ad 85 ba 3c 62 15 cb 3c 47 9b 69 3d 26 37 3d 3d
       0.02276882 0.02479047 0.05703285 0.04619517
000150 c1 f6 f0 3c 9f bd 81 3d 82 ef 91 3d 0f 8e 8a 3d
       0.029414536 0.063349955 0.071257606 0.06765377
000160 f4 b9 06 3d 07 0c 29 3d 00 5e d5 3c 36 e7 1a 3d
       0.032892182 0.041271236 0.0260458 0.037818156
000170 d3 11 a3 3c 92 ac b8 bb 55 bb 0a 3d c4 28 81 3d
       0.01990596 -0.0056358064 0.03387006 0.063066036
000180 b3 59 99 3d 2f 15 b6 3c f9 38 6c 3d 41 22 3f 3d
       0.07487812 0.022226898 0.05767152 0.046663526
000190 34 89 9d 3d 91 f2 fb 3c fc 3b ed 3c 49 b9 01 3d
       0.07692185 0.030755313 0.028959267 0.031670842
0001a0 07 a8 3f 3d 3a 76 47 3d 55 dd 11 3d 58 bd 75 3b
       0.046791103 0.048696734 0.03561147 0.003749689
0001b0 66 38 4a 3d 9e b8 94 3d 73 2d 1a 3d 51 8b 34 3d
       0.049370192 0.072617754 0.037641 0.044078175
0001c0 c6 0c 30 3d 94 bf 83 3d 61 9e 52 3d 26 90 04 3d
       0.04298093 0.06433025 0.051420573 0.032364033
0001d0 62 eb 44 3d 61 70 10 3d 14 a7 f9 3c 1d 59 b5 3c
       0.04807604 0.035263423 0.030475177 0.02213722
0001e0 55 1b ff 3c 92 38 3b 3d c8 04 b0 3c ee 4e 44 3d
       0.031140963 0.045708247 0.021486655 0.047926836
0001f0 03 de 19 3d 5c d3 84 3c eb de 5f 3d 40 c7 d6 3c
       0.037565242 0.016214065 0.05465595 0.026218057
000200 30 59 1d 3d e6 60 71 3d 7c 68 41 3d 68 77 91 3d
       0.038415134 0.0589303 0.047218785 0.07102853
000210 1e 02 cf 3c e2 40 2b 3d 07 b3 19 3d 4b 1a 0d 3d
       0.025269564 0.041809924 0.03752425 0.034448903
000220 6a 94 2b 3c 1d 42 37 3d ec 40 5a 3c 4d 3f 87 3c
       0.010472396 0.044740785 0.013321143 0.016509676
000230 f8 0c 17 3d 26 08 22 3d 09 67 19 3d 37 43 2c 3d
       0.036877602 0.039558552 0.037451778 0.04205629
000240 ef bc ce 3b 70 3f 06 3d c3 e7 6b 3c 5d 59 6a 3d
       0.0063091437 0.032775342 0.014398518 0.05721413
000250 48 83 47 3d d6 99 28 3d cf 0f b8 3d b3 59 81 3c
       0.048709184 0.041162334 0.0898739 0.015789842
000260 df 32 01 3d eb 83 f0 3c 1d 5b 02 3d 0f 8d fe 3c
       0.031542655 0.029359778 0.031825174 0.031073121
000270 1c c2 b1 3d 04 e2 16 3d 77 68 3a 3d 40 42 08 3d
       0.086796016 0.03683664 0.04550978 0.033266306
000280 c3 93 71 3d dc e3 80 3c 4a 62 42 3d d2 36 2f 3d
       0.058978807 0.015733652 0.047457017 0.04277689
000290 ae 69 d6 3c 87 eb bb 3d 41 b6 90 3c ac 5a 6e 3d
       0.026173439 0.09175783 0.01766503 0.05819194
0002a0 8a 41 99 3c 4a 8a 07 3d 6c 07 20 3d 5c 18 f6 3b
       0.01870801 0.033090867 0.039069578 0.007510228
0002b0 fa 9f 34 3d 82 ed a2 3c 8a 73 38 3d 53 61 aa bc
       0.044097878 0.019888643 0.04503206 -0.02079836
0002c0 e3 a5 36 3d cc b0 56 3d 57 34 48 3d e8 e6 00 3d
       0.044591796 0.0524147 0.04887804 0.03147021
0002d0 6f 4f 6e 3d eb b3 30 3d 57 3a 01 3c 1a db 4c 3d
       0.058181223 0.043140333 0.007887444 0.05001364
0002e0 16 49 5f 3d cf c7 85 3d be e0 58 3d 68 05 2b 3d
       0.05451306 0.06532251 0.052948706 0.041753203
0002f0 7a 36 61 3d 6c dc 19 3d 93 94 ff 3c f3 3e 15 3c
       0.054983594 0.037563726 0.031198775 0.009109247
000300 e2 4f 71 3c 62 b2 3a 3d ae 23 4a 3d fc 76 5b 3d
       0.014728518 0.045580275 0.049350433 0.05358027
000310 2f e4 8e 3c 86 75 b4 3c 2c da 3c 3d 92 4a 02 3c
       0.01744279 0.022028696 0.046106502 0.007952349
000320 48 8a 22 3d 14 01 01 3d bd ef 90 3c 8c ef 44 3d
       0.039682657 0.03149517 0.017692441 0.048080012
000330 e7 9d 36 3d 44 9b 1f 3d e2 ba 2f 3d c8 37 b0 3d
       0.04458418 0.038966432 0.042902835 0.086043894
000340 ed 7d 2e 3c 30 e0 6a 3b cd eb 4d 3d 25 ca c2 3d
       0.01065014 0.0035839193 0.050273705 0.09511212
000350 6d 3b 31 3d a4 b0 8c 3c 45 47 c4 3c 48 bd 4e 3d
       0.043269563 0.017174073 0.023959765 0.05047348
000360 df 95 6b 3d b7 93 62 3d 73 55 64 3d 3a df 9c 3d
       0.057515975 0.055316653 0.055745553 0.076597646
000370 e9 43 a8 3d ec ac 37 3d 47 f5 f0 3c 26 0c 4d 3d
       0.08216078 0.044842646 0.029413832 0.050060414
000380 07 ee 96 3c 26 75 4f 3d 57 c1 41 3d 59 a1 f5 3c
       0.018424047 0.05064883 0.047303524 0.029984163
000390 eb 96 17 3d 30 e9 89 bc e9 f3 fb 3c e5 b1 9e 3d
       0.03700916 -0.016834825 0.030755954 0.077487744
0003a0 95 27 48 3d 92 b3 16 3c 97 59 b9 3c 3c cc 7c 3d
       0.048865873 0.009198086 0.022625728 0.06171821
0003b0 02 dc 43 3d a7 80 8a 3d ba c7 3f 3c da 1b 72 3c
       0.047817238 0.0676282 0.011705333 0.014777148
0003c0 fd ce 5f 3d cf fc b7 3c a7 ce e7 3c 57 15 2a 3d
       0.05464076 0.022459416 0.028296782 0.041524258
0003d0 df 4f 71 3d 12 ae a5 3d 04 83 08 3d be f5 bc 3c
       0.05891406 0.08089842 0.03332807 0.023066398
0003e0 30 05 d7 3c 0a 62 78 3d 5c 46 16 3d 22 99 59 3d
       0.02624759 0.060640372 0.036688194 0.053124554
0003f0 22 02 43 3d c1 a9 87 3c 70 99 89 3d 06 76 0c 3d
       0.047609456 0.016560437 0.06718719 0.034292243
