params-hybrid.pt (torch, 7115 bytes, 8 tensors)

cnn_net.0.weight f4 [32, 6, 3]
0	0x403838cc	2.8784666
1	0x3f44a53f	0.76814646
2	0xbfd71df8	-1.6806021
3	0x40440c28	3.063242
4	0x3f97afc9	1.185052
5	0xbfddd802	-1.7331545
6	0x40106fd8	2.2568264
7	0x3f74425f	0.95413774
8	0xbf8af31b	-1.085544
9	0x404358ac	3.052287
10	0x3f0313b2	0.5120193
11	0xbf037e60	-0.5136471
12	0x4017d216	2.3721976
13	0x3fe081f2	1.7539656
14	0x3dd998f9	0.1062488
15	0x4078d00c	3.8876982
16	0x3f04552e	0.51692474
17	0xbfaaaba7	-1.3333634
18	0xbf87cfb2	-1.0610259
19	0xbfb9203f	-1.4462966
20	0xc00ffd0b	-2.2498195
21	0x3f99a521	1.2003518
22	0x3fc44497	1.5333432
23	0xc041a804	-3.0258799
24	0x3ee7ed36	0.45298165
25	0x3f0e88dc	0.5567758
26	0xc057c1b3	-3.3711975
27	0x3fafc306	1.3731391
28	0x3ef165f5	0.471481
29	0xc02ad027	-2.6689546
30	0x3f5f9a04	0.87344384
31	0x3f5b6f59	0.8571678
32	0xc08f6187	-4.480655
33	0x4011d61a	2.2786927
34	0x3f6925bb	0.910732
35	0xc09f2688	-4.9734535
36	0xc09ad396	-4.8383284
37	0x403c72ce	2.9445071
38	0xbff0c5fa	-1.8810418
39	0xc0442ade	-3.0651164
40	0x40159a58	2.3375454
41	0xbf528aa8	-0.8224282
42	0xc0307d2d	-2.7576401
43	0x402b521e	2.676887
44	0xbfcd2e21	-1.6029702
45	0xc09d00fb	-4.9063697
46	0x3ff6479a	1.9240601
47	0xbfd32a87	-1.6497353
48	0xc06d6509	-3.7092917
49	0x408997a2	4.29976
50	0xbfd732d1	-1.6812383
51	0xc00af3f5	-2.17114
52	0x406e8b63	3.7272575
53	0xc08f2526	-4.4732847
54	0xbfc26c53	-1.5189308
55	0xc11dcdae	-9.862715
56	0x3f8999f9	1.0750114
57	0xbff98dd4	-1.9496408
58	0xc116d51d	-9.42703
59	0x3fbeee6c	1.491651
60	0xbf1ba675	-0.6080087
61	0xc105c246	-8.35993
62	0x3f50aac3	0.8151056
63	0x3e2c03ab	0.16798274
64	0xc11dbb29	-9.858193
65	0x40516332	3.2716794
66	0xbee51f11	-0.44750264
67	0xc1103c07	-9.014655
68	0x40190801	2.3911135
69	0xbfdbc419	-1.7169219
70	0xc0ef87b2	-7.4853144
71	0x4034b5f2	2.823605
72	0xc68779eb	-17340.959
73	0xc687823a	-17345.113
74	0x46878af7	17349.482
75	0xc6877b0c	-17341.523
76	0xc6878166	-17344.7
77	0x46878d8f	17350.78
78	0xc6877b3e	-17341.621
79	0xc6877f46	-17343.637
80	0x46878e1d	17351.057
81	0xc6877f82	-17343.754
82	0xc6877d3d	-17342.62
83	0x46878be0	17349.938
84	0xc6877b28	-17341.578
85	0xc687825c	-17345.18
86	0x46878a4b	17349.146
87	0xc68779d5	-17340.916
88	0xc6877d0b	-17342.521
89	0x46878560	17346.688
90	0xbec19816	-0.37811345
91	0x40603715	3.503362
92	0xc091372d	-4.5379853
93	0x3f44f98f	0.76943296
94	0x40426717	3.037542
95	0xc0951162	-4.658372
96	0x3eb2fc99	0.34958342
97	0x405b2f04	3.4247446
98	0xc0f42bdf	-7.6303554
99	0xbf2a8530	-0.6660948
100	0x4003f6a2	2.0619283
101	0xc0a82360	-5.254318
102	0xc04fb3c3	-3.2453468
103	0x40866920	4.2003326
104	0xc08e73cd	-4.451636
105	0x3ee4690f	0.44611403
106	0x403e0bd6	2.9694724
107	0xc08814e2	-4.252549
108	0x4092c313	4.586313
109	0x3ea15000	0.31506348
110	0xc04537df	-3.081535
111	0x402cb972	2.6988187
112	0xbe8a07e3	-0.26959142
113	0xc0ab7115	-5.357554
114	0x40acfe15	5.406016
115	0x3f79535c	0.9739282
116	0xc0b96539	-5.7936063
117	0x3fd5a1b5	1.6689974
118	0xbfd5e23a	-1.6709664
119	0xc0a126fa	-5.036008
120	0x40a1c7f0	5.0556564
121	0x3d2eb6d2	0.04265482
122	0xc02902e7	-2.6408021
123	0x409e884e	4.9541388
124	0x3fa7bbb2	1.3104155
125	0xc09438e8	-4.6319466
126	0x3edd5d06	0.43235034
127	0xbf840180	-1.0312958
128	0xbe62c945	-0.2214709
129	0x3fc5edb1	1.5463163
130	0xbfe19b74	-1.7625566
131	0x3fe6bef4	1.8027024
132	0x4032391b	2.7847354
133	0xc01e1302	-2.4699101
134	0x3dbeda58	0.093189895
135	0x40086755	2.131307
136	0xc02455b7	-2.5677316
137	0x3e31dbb2	0.17368963
138	0x40347098	2.8193722
139	0xbf580294	-0.84378934
140	0x3f836074	1.026381
141	0x4008f6f8	2.1400738
142	0xc009ea07	-2.154909
143	0xbfa90fbc	-1.3207927
144	0x40387a4f	2.8824651
145	0x40957935	4.671046
146	0xc09bfb5f	-4.874435
147	0x40a49a73	5.1438537
148	0x403c7c3d	2.945083
149	0xc0757057	-3.8349817
150	0x3f876dfc	1.058044
151	0x40ad1f11	5.4100423
152	0xc00eb744	-2.2299356
153	0x400aeab4	2.1705751
154	0x405c7db9	3.4451735
155	0xc0712b83	-3.7682807
156	0x408b9038	4.361355
157	0x407f1e5e	3.9862285
158	0xc09cdc06	-4.9018583
159	0x3ef83780	0.48479843
160	0x4095d1d0	4.681862
161	0xc0a2fdcd	-5.0934815
162	0x46dcb6f6	28251.48
163	0xc6dcc45d	-28258.182
164	0x46dcc512	28258.535
165	0x46dcbb79	28253.736
166	0xc6dcbe65	-28255.197
167	0x46dcc515	28258.541
168	0x46dcbf3a	28255.613
169	0xc6dcbf7e	-28255.746
170	0x46dcc6bb	28259.365
171	0x46dcbce5	28254.447
172	0xc6dcbfad	-28255.838
173	0x46dcc574	28258.727
174	0x46dcba68	28253.203
175	0xc6dcc358	-28257.672
176	0x46dcc14d	28256.65
177	0x46dcb8de	28252.434
178	0xc6dcc438	-28258.11
179	0x46dcc5de	28258.934
180	0xbfe0a489	-1.7550212
181	0x4059fcf8	3.406065
182	0xc0854919	-4.165173
183	0xbfe906af	-1.8205165
184	0x3f8c34b1	1.095358
185	0xc06399fe	-3.556274
186	0xc02f4724	-2.738717
187	0x4028c5e1	2.6370776
188	0xc092e410	-4.5903397
189	0xbf717c0e	-0.9432992
190	0x3fe0166f	1.7506846
191	0xc066be07	-3.6053483
192	0xbfbe42c0	-1.486412
193	0x3fd0e278	1.6319113
194	0xc0ccda0a	-6.401616
195	0xc026a9d8	-2.6041164
196	0x4015b705	2.3392956
197	0xc0afb106	-5.4903593
198	0x3f133a8b	0.57511204
199	0x404876fa	3.1322618
200	0x3f6661c0	0.89992905
201	0x402305d7	2.5472314
202	0x408773d2	4.232888
203	0x3f9bda60	1.2176018
204	0x3f2ec0f2	0.6826316
205	0x404181ef	3.0235555
206	0x400c19c2	2.1890721
207	0x3ffa2b1e	1.9544408
208	0x404dc3df	3.21508
209	0x401d4c6a	2.457789
210	0x3f9be7b1	1.2180082
211	0x402b0f2c	2.672801
212	0x4054b9e0	3.323845
213	0xbf2c78c4	-0.67371774
214	0x40897a3b	4.2961707
215	0x3ff5b647	1.9196252
216	0x469d8226	20161.074
217	0x469d7030	20152.094
218	0x4019b323	2.4015586
219	0x469d828c	20161.273
220	0x469d74bd	20154.37
221	0x40974c46	4.7280607
222	0x469d8275	20161.229
223	0x469d709a	20152.3
224	0x404892ef	3.133968
225	0x469d803e	20160.121
226	0x469d7678	20155.234
227	0x4051259d	3.2679207
228	0x469d8007	20160.014
229	0x469d78de	20156.434
230	0x408107fe	4.0322256
231	0x469d80e8	20160.453
232	0x469d73a3	20153.818
233	0x40c06de8	6.0134163
234	0x3f3cefbc	0.73803306
235	0x4092bc00	4.585449
236	0xc0ace62b	-5.4030967
237	0x4049e851	3.1548045
238	0x40cf5fc3	6.4804397
239	0xc0cba03c	-6.36331
240	0x3e9b057a	0.30277616
241	0x40540f9f	3.3134534
242	0xc091ae4e	-4.5525274
243	0x4094cea5	4.650225
244	0x402f3c8c	2.7380705
245	0xc09b5458	-4.854046
246	0x4097521b	4.7287726
247	0x409ef576	4.9674635
248	0xc087e7a6	-4.2470274
249	0x408c57a1	4.385697
250	0x409aedf0	4.841545
251	0xc0a0fb2b	-5.03066
252	0xbf69a5c6	-0.91268575
253	0x4052672c	3.287547
254	0xbfda02bf	-1.7032088
255	0xbee5e312	-0.44899803

cnn_net.0.bias f4 [32]
0	0xbf88282f	-1.0637263
1	0xbe410ced	-0.18852587
2	0x403f6ee6	2.9911437
3	0xc0971a96	-4.7219954
4	0xc68780b5	-17344.354
5	0x40430d0d	3.0476716
6	0x3fb3e9ad	1.4055687
7	0xbe4f1468	-0.20222628
8	0x3f84fadf	1.038906
9	0x46dcc1dc	28256.93
10	0xbff77336	-1.9332035
11	0x40bbcd75	5.86883
12	0x469d7da2	20158.816
13	0xc0519907	-3.274965
14	0x3d8e33ce	0.06943475
15	0xc0b8ccd0	-5.7750015
16	0xbeb5ebef	-0.35531566
17	0x3fd01903	1.6257633
18	0x409e8dcf	4.9548106
19	0x3ee69258	0.45033526
20	0xbf236571	-0.6382666
21	0x4026f9ee	2.6090045
22	0xbfd9b6e7	-1.7008942
23	0xbfdf326f	-1.7437266
24	0x40359a6f	2.8375509
25	0xc0c07c70	-6.01519
26	0xc5f56dc9	-7853.723
27	0x401b454b	2.4261043
28	0xc026c2a4	-2.60563
29	0x45a4cab1	5273.3364
30	0x401ac255	2.418111
31	0xc0bf2580	-5.9733276

lstm_net.weight_ih_l0 f4 [32, 3]
0	0x4042f0b2	3.0459409
1	0x40247234	2.5694704
2	0x40ccd197	6.4005847
3	0x3e21c334	0.1579712
4	0x3ffd8cd3	1.9808601
5	0x3dc4145b	0.09574195
6	0xc03cf2e1	-2.9523242
7	0xc02b78df	-2.6792524
8	0xbfbb644f	-1.4639987
9	0x3f177ead	0.59177667
10	0x3fcafd07	1.5858468
11	0x3fab8ce9	1.3402377
12	0x3f000c0b	0.50018376
13	0x3fd037ff	1.6267089
14	0xbe4ea471	-0.20179917
15	0x3fe40c11	1.7816182
16	0x4062c874	3.5434847
17	0x4069e6a1	3.6547015
18	0x3e712eea	0.23553053
19	0xbfd05dbe	-1.6278608
20	0x3d9270e1	0.07150436
21	0xc0861046	-4.1894865
22	0x3f86a11e	1.0517919
23	0x405abb21	3.4176714
24	0x3fa921d9	1.3213454
25	0x403fd387	2.9972856
26	0x3fb43445	1.4078451
27	0x3f2a3a1c	0.6649492
28	0x3ffb3fd0	1.9628849
29	0x3fc0a8ae	1.5051477
30	0x3fd26f04	1.6440129
31	0x40813b7d	4.0385118
32	0xc69d793e	-20156.621
33	0x3eb07a3a	0.3446825
34	0x3fd95676	1.6979511
35	0x3fd6789e	1.675556
36	0x3f551e69	0.8324953
37	0x4030c0eb	2.7617748
38	0x3f0a11ea	0.53933585
39	0x3fdaa7d5	1.7082468
40	0x40787f7b	3.8827808
41	0xbf3b5986	-0.73183477
42	0x4062f405	3.5461438
43	0x3fb46685	1.4093786
44	0x3f9a0a08	1.2034311
45	0x40a2205f	5.0664515
46	0x40099424	2.1496668
47	0x40161509	2.345034
48	0xbf64b68f	-0.8934106
49	0x3f2272ff	0.6345672
50	0x3fa8bf98	1.318347
51	0x3f7e7fca	0.9941374
52	0x3eaa3733	0.3324524
53	0x3ee03611	0.4379125
54	0x4002069b	2.0316532
55	0x3f60cbb9	0.87810856
56	0xbcc242f7	-0.023713572
57	0xc6dcc72d	-28259.588
58	0xc6dcbf4a	-28255.645
59	0x3ed97fbb	0.42480263
60	0x3e948f81	0.29015735
61	0xbf16e4ad	-0.5894268
62	0x3f0afc6e	0.5429143
63	0xbf33e64b	-0.70273274
64	0xc03b6b05	-2.928407
65	0xc0041db9	-2.0643141
66	0x3efbf5db	0.4921101
67	0x3eca75c0	0.3954296
68	0x3f7b15cd	0.9808014
69	0x3d4ba8ac	0.049721405
70	0xbf0cca90	-0.54996586
71	0xbf924f87	-1.143052
72	0xc6878433	-17346.1
73	0xc5f5228f	-7844.32
74	0xc6878465	-17346.197
75	0x3f0110cb	0.5041625
76	0x3fca79e1	1.5818444
77	0x3f6e7555	0.93147784
78	0x3ec41296	0.3829543
79	0x3f6a5f19	0.9155136
80	0x3fb63ee7	1.4237946
81	0x4011e3ce	2.279529
82	0x406419b5	3.564069
83	0x407ef03b	3.9834125
84	0xc089aa44	-4.3020344
85	0xbfe62576	-1.7980182
86	0xc00f3569	-2.237635
87	0xc5a4a4c7	-5268.597
88	0x40ed61b9	7.418179
89	0xc5a4c032	-5272.0244
90	0x402d293a	2.7056413
91	0x3f2248d8	0.633924
92	0x4009f58a	2.1556115
93	0x3e68f0e9	0.2274815
94	0x3f83b50f	1.028963
95	0x4018b095	2.3857777

lstm_net.weight_hh_l0 f4 [32, 8]
0	0x40aea819	5.4580197
1	0x4089c949	4.305821
2	0xc1057568	-8.341164
3	0xbf441b88	-0.7660451
4	0xc0172c9e	-2.3620982
5	0xc070545b	-3.7551486
6	0x40c4740c	6.139166
7	0xc0b6ad48	-5.7086525
8	0x45bbb7da	6006.9814
9	0x45bbb8ea	6007.1143
10	0xbf1d74ff	-0.61506647
11	0x45bbb68f	6006.82
12	0xbea8f824	-0.33001816
13	0xc5bbb580	-6006.6875
14	0x3fd8bedb	1.6933244
15	0xc5bbbcc3	-6007.595
16	0xc5c74327	-6376.394
17	0x45c76cd2	6381.6025
18	0xc5c736bb	-6374.8413
19	0xc5c732e7	-6374.363
20	0x3ecd7d17	0.40134498
21	0xc085cb5e	-4.181075
22	0x45c76bbb	6381.4663
23	0xc5c760f2	-6380.118
24	0x40927097	4.576244
25	0xc6d95fef	-27823.967
26	0xc0a73185	-5.224795
27	0xc6d97008	-27832.016
28	0x3f56c3da	0.83892596
29	0xc0ba59e9	-5.8234754
30	0x40ee2ec0	7.443207
31	0x46d95fd2	27823.91
32	0xc5bb9f9d	-6003.9517
33	0x45bbb119	6006.137
34	0xc5bbb682	-6006.8135
35	0xc5bba18f	-6004.195
36	0x45bb9df4	6003.744
37	0xc5bbb519	-6006.637
38	0x45bbbb00	6007.375
39	0xc5bbd952	-6011.165
40	0x45bbcb00	6009.375
41	0x45bbc646	6008.784
42	0xc00c6b33	-2.194043
43	0x45bbb273	6006.306
44	0x3e2ec8a1	0.17068721
45	0xc5bbac0d	-6005.5063
46	0x405a4193	3.4102523
47	0xc5bbb42e	-6006.5225
48	0x45bbb061	6006.0474
49	0x45bbba93	6007.322
50	0xc006dab7	-2.1070993
51	0x45bbbd9a	6007.7
52	0xbf3aa291	-0.72904307
53	0xc5bbbed3	-6007.853
54	0x45bbd895	6011.0728
55	0xc5bbcef1	-6009.8677
56	0x45bbc84c	6009.037
57	0x45bbbcd7	6007.605
58	0xc0a6ba8d	-5.2102723
59	0x45bbb152	6006.165
60	0xbf9c027a	-1.2188256
61	0xc5bbc520	-6008.6406
62	0x45bc0844	6017.033
63	0xc5bbb2f9	-6006.3716
64	0x3e9a71fc	0.30165088
65	0x4050a5dd	3.2601235
66	0xc0bd17cf	-5.9091563
67	0xbf049d8e	-0.5180291
68	0xbf68ddfd	-0.9096373
69	0xc0ad6053	-5.4180083
70	0x4093fc1e	4.624526
71	0xc0870695	-4.2195535
72	0x45bba856	6005.042
73	0x45bba18e	6004.1943
74	0x3ef703c6	0.48245066
75	0x45bbbeda	6007.8564
76	0xbf17f658	-0.59360266
77	0xc5bbb02c	-6006.0215
78	0x405c5499	3.4426634
79	0xc5bbd12a	-6010.1455
80	0xc5bb95b6	-6002.714
81	0xc65d16af	-14149.671
82	0x465d045e	14145.092
83	0x46cc690d	26164.525
84	0x45bb9836	6003.0264
85	0xc5bbc084	-6008.0645
86	0xc65d172b	-14149.792
87	0x465d0107	14144.257
88	0x45bba3a7	6004.4565
89	0x45bb9d3e	6003.6553
90	0x45bb61d0	5996.2266
91	0x45bc4edf	6025.859
92	0xc5bbba21	-6007.266
93	0xc5bba841	-6005.0317
94	0x45bba4be	6004.593
95	0xc5bb7548	-5998.66
96	0x45bbaeb2	6005.837
97	0xc5bb906e	-6002.0537
98	0x45bb8fa5	6001.9556
99	0x45bbc554	6008.666
100	0xc5bba0a4	-6004.08
101	0x45bba288	6004.3164
102	0xc5bb8b71	-6001.43
103	0x45bba813	6005.0093
104	0x45bbc510	6008.633
105	0x45bbae10	6005.758
106	0xbfe0d9d4	-1.7566476
107	0x45bbbc1b	6007.513
108	0x3f95f601	1.17157
109	0xc5bbbe0d	-6007.7563
110	0x3fd49995	1.660937
111	0xc5bbb8ed	-6007.1157
112	0xc5bba9d2	-6005.2275
113	0x45bbea0f	6013.2573
114	0xbdd352e8	-0.103185475
115	0xc5bba20f	-6004.2573
116	0xbf65a1b1	-0.89699847
117	0xc5bbb985	-6007.19
118	0x45bbc50b	6008.6304
119	0xc5bbb1dc	-6006.2324
120	0xc5bb5552	-5994.665
121	0x45bbba62	6007.298
122	0xc13710d0	-11.441605
123	0xc5bb87bc	-6000.967
124	0xbf8953f7	-1.0728749
125	0xc5bbd345	-6010.4087
126	0x45bbbbab	6007.4585
127	0xc5bbd7d6	-6010.9795
128	0x45bbaeff	6005.8745
129	0x45bbb889	6007.067
130	0xc024ba74	-2.5738802
131	0x45bbaafc	6005.373
132	0xbee437b8	-0.4457376
133	0xc5bba59f	-6004.7026
134	0x45bb35e1	5990.735
135	0xc5bba8f4	-6005.119
136	0x45bbaa9c	6005.326
137	0x45bbba68	6007.301
138	0xbe9c9dd4	-0.30589163
139	0x45bbb305	6006.3774
140	0xbd571fb3	-0.052520465
141	0xc5bbb415	-6006.5103
142	0xbe658e95	-0.22417672
143	0xc5bba9cd	-6005.225
144	0x3ef8bb3a	0.48580343
145	0xc0165f8d	-2.349582
146	0xbf87963e	-1.0592725
147	0xbffbc96e	-1.9670846
148	0xbcff5e95	-0.03117303
149	0x400218e7	2.03277
150	0xc09d6574	-4.9186344
151	0x4077e960	3.873619
152	0x40804ab7	4.0091205
153	0xc6dcb9a7	-28252.826
154	0xbf2177a1	-0.63073164
155	0x46dcbff3	28255.975
156	0xbe56c9e2	-0.2097545
157	0xbfe52969	-1.7903262
158	0xc6dcba91	-28253.283
159	0x46dcc29a	28257.3
160	0x45bba12c	6004.1465
161	0xc5bbb6a4	-6006.83
162	0x45bbaeb5	6005.8384
163	0x45bbab07	6005.3784
164	0xc5bbabf4	-6005.494
165	0x45bbb095	6006.0728
166	0xc5bba651	-6004.7896
167	0x45bbc77a	6008.9346
168	0xc08251f8	-4.072506
169	0xc6d96cca	-27830.395
170	0x405a03e4	3.4064875
171	0xc6d9693a	-27828.613
172	0x40094d97	2.1453607
173	0x3ef6f180	0.48231125
174	0xc6d96dda	-27830.926
175	0x46d96cf3	27830.475
176	0xc5bba2c8	-6004.3477
177	0x45bbb4e6	6006.6123
178	0x3e95c6b2	0.29253155
179	0xc5bb9abf	-6003.3433
180	0xbf7e923e	-0.994419
181	0xc5bbacd7	-6005.605
182	0x45bbbf86	6007.9404
183	0xc5bbcdb0	-6009.711
184	0xc5bba69f	-6004.8276
185	0xc5bbba84	-6007.3145
186	0x3deb0ebc	0.1147742
187	0xc5bbbd0b	-6007.6304
188	0x3f75eadd	0.960615
189	0x45bbb88f	6007.07
190	0xc5bbbb4f	-6007.4136
191	0x45bbae1e	6005.7646
192	0x4657a4a7	13801.163
193	0xc6f0ea1f	-30837.06
194	0x46c27e95	24895.291
195	0x46f1076a	30851.707
196	0xc13fd003	-11.988284
197	0x46576633	13785.55
198	0xc6f0cd3f	-30822.623
199	0x46f0d924	30828.57
200	0xc5bb706d	-5998.053
201	0x45bbb9fa	6007.247
202	0xc5bbc7e6	-6008.9873
203	0xc5bbaa3e	-6005.2803
204	0x45bb8a1a	6001.2627
205	0xc5bbc005	-6008.0024
206	0x45bbc65a	6008.794
207	0xc5bbe58a	-6012.6924
208	0x45a639fd	5319.2485
209	0xc5a5fe20	-5311.7656
210	0x45a62de7	5317.738
211	0x45a62e78	5317.8086
212	0xc0683346	-3.6281295
213	0xc075b87a	-3.8393846
214	0xc5a603b1	-5312.4614
215	0x45a5e53e	5308.6553
216	0xc5bb6ded	-5997.7407
217	0x45bbb30c	6006.381
218	0xc0a6b66b	-5.209768
219	0xc5bb98c0	-6003.0938
220	0xc0525273	-3.2862823
221	0xc5bbc222	-6008.2666
222	0x45bbc431	6008.524
223	0xc5bbd31a	-6010.3877
224	0x45bbfa50	6015.289
225	0xc5bb7153	-5998.1655
226	0x45bba207	6004.2534
227	0xc5bb7834	-5999.0254
228	0xc5bc3b3a	-6023.4033
229	0x45bb7b0b	5999.3804
230	0xc5bb6f10	-5997.883
231	0x45bb9b65	6003.4243
232	0x45d1c4f3	6712.6187
233	0x45d1ef21	6717.891
234	0xc5d1ee67	-6717.8003
235	0x45d18701	6704.8755
236	0xc0a03162	-5.006028
237	0xc5d1fac0	-6719.3438
238	0x45d0ad04	6677.627
239	0xc5d1c699	-6712.8247
240	0x45bbb8bb	6007.0913
241	0x45bbbcb0	6007.586
242	0xc05ca859	-3.4477751
243	0x45bbaaaf	6005.3354
244	0xbdf144f1	-0.11780728
245	0xc5bbc526	-6008.6436
246	0x45bbd4de	6010.6084
247	0xc5bbcea4	-6009.83
248	0xc5bb8bf0	-6001.492
249	0x45bbc5e7	6008.738
250	0xc08ad876	-4.3389235
251	0xc5bba592	-6004.6963
252	0xbffe6c87	-1.987687
253	0xc5bbb2ad	-6006.3345
254	0x45bbd146	6010.159
255	0xc5bbd211	-6010.2583

lstm_net.bias_ih_l0 f4 [32]
0	0x406dbab8	3.7145214
1	0x45bbb8b8	6007.09
2	0x45c770d9	6382.106
3	0xc6d95fb3	-27823.85
4	0x45bbc2b5	6008.3384
5	0x45bbbfba	6007.966
6	0x45bbba60	6007.297
7	0x45bbbff5	6007.9946
8	0x40c951ab	6.291219
9	0x45bbbc7a	6007.5596
10	0xc65d1d1a	-14151.275
11	0x45bbab7d	6005.436
12	0xc5bb9c03	-6003.5015
13	0x45bbbde2	6007.7354
14	0x45bbbd88	6007.6914
15	0x45bbd55a	6010.669
16	0x45bbb0f0	6006.117
17	0x45bbb5cb	6006.724
18	0xc04c5469	-3.192652
19	0xc6dcba62	-28253.191
20	0xc5bbbc23	-6007.517
21	0xc6d96954	-27828.664
22	0x45bbb955	6007.1665
23	0xc5bbb06b	-6006.0522
24	0xc6f0eae1	-30837.44
25	0x45bbd665	6010.7993
26	0xc5a60197	-5312.1987
27	0x45bbc62c	6008.7715
28	0xc5bb79b3	-5999.2124
29	0x45d1ed07	6717.6284
30	0x45bbba79	6007.309
31	0x45bbb257	6006.2925

lstm_net.bias_hh_l0 f4 [32]
0	0x409a72f1	4.826531
1	0x45bbbfaa	6007.958
2	0x45c75faf	6379.9604
3	0xc6d95f6d	-27823.713
4	0x45bbb5a8	6006.707
5	0x45bbb1d0	6006.2266
6	0x45bbba62	6007.298
7	0x45bbafee	6005.991
8	0x409e1b5d	4.9408402
9	0x45bbbbef	6007.4917
10	0xc65d145e	-14149.092
11	0x45bba6db	6004.857
12	0xc5bb8f68	-6001.926
13	0x45bbb61f	6006.765
14	0x45bbb7e7	6006.988
15	0x45bbccf2	6009.618
16	0x45bba8d6	6005.1045
17	0x45bbb47d	6006.561
18	0xc035e922	-2.8423543
19	0xc6dcbb7d	-28253.744
20	0xc5bbb6a1	-6006.8286
21	0xc6d96e6d	-27831.213
22	0x45bbb797	6006.9487
23	0xc5bbb753	-6006.9155
24	0xc6f0ebd0	-30837.906
25	0x45bbccb2	6009.587
26	0xc5a61033	-5314.025
27	0x45bbc39f	6008.4526
28	0xc5bb766f	-5998.804
29	0x45d1f366	6718.425
30	0x45bbc2d4	6008.3535
31	0x45bbb835	6007.026

linear_net.weight f4 [4, 8]
0	0xc50339e7	-2099.619
1	0x460a710e	8860.264
2	0x450dc59d	2268.3508
3	0x440d8477	566.06976
4	0xc5c49c0f	-6291.5073
5	0x46be48fc	24356.492
6	0x46294ec4	10835.691
7	0xc614c3d4	-9520.957
8	0x472e0036	44544.21
9	0xc7d57960	-109298.75
10	0x4abf8eeb	6.2769815e+06
11	0x482210c1	165955.02
12	0xc5c40d53	-6273.6655
13	0xcb188cf2	-9.997554e+06
14	0xc7d621e9	-109635.82
15	0x47d43a59	108660.695
16	0xc6eb5216	-30121.043
17	0x479056bd	73901.48
18	0xca807d9e	-4.210383e+06
19	0x47331e0e	45854.055
20	0xc5c43482	-6278.5635
21	0x4a0e0346	2.3267375e+06
22	0x478af9e2	71155.766
23	0xc7cfd25b	-106404.71
24	0x4614c56d	9521.356
25	0x44d43bda	1697.8704
26	0x467e29e7	16266.476
27	0x44924912	1170.2834
28	0xc5c3f210	-6270.258
29	0x46ca64d2	25906.41
30	0x45683e11	3715.8792
31	0xc5a83658	-5382.793

linear_net.bias f4 [4]
0	0x4608f4b8	8765.18
1	0xc7d56aa1	-109269.26
2	0x47905a94	73909.16
3	0x44c421ac	1569.0522
