params.pt (torch, 356063 bytes, 6 tensors)

lstm.weight_ih_l0 f4 [576, 6]
0	0x4012accc	2.2917967
1	0x424cc0f0	51.188416
2	0x4192215d	18.26629
3	0x3f76e260	0.9643917
4	0x41d4cc94	26.599892
5	0x41a9cf2f	21.226164
6	0xc546692f	-3174.574
7	0xc338e32e	-184.88742
8	0xc2816b8d	-64.71006
9	0xc3625231	-226.32106
10	0xc2bf663a	-95.69966
11	0xc19d3be3	-19.654242
12	0x404d20c9	3.205126
13	0x40cccbcc	6.3998775
14	0x40905189	4.509953
15	0x40f798bb	7.737394
16	0x3f3a7879	0.72840077
17	0x3e5cbfc0	0.21557522
18	0xbfbbcbc2	-1.4671557
19	0xbf05e101	-0.52296454
20	0x3eaa78c2	0.33295256
21	0xbf38de92	-0.72214615
22	0x3d320a30	0.043466747
23	0xbfd73400	-1.6812744
24	0x3f90c83a	1.1311104
25	0x431245aa	146.27213
26	0x42517f7c	52.374496
27	0xbf522396	-0.8208555
28	0x403672fb	2.8507679
29	0x42ca6361	101.1941
30	0x43017d5c	129.48969
31	0x41224f9e	10.144438
32	0x400841b7	2.129011
33	0x42fae8d6	125.45476
34	0x419cc4dc	19.596123
35	0x414eab08	12.916756
36	0xbea16c09	-0.31527737
37	0xbec008cb	-0.37506709
38	0x3ec2d2d7	0.38051483
39	0x3f3abc43	0.72943515
40	0xbee35ae9	-0.44405296
41	0xbf210929	-0.629046
42	0xbf8bf5e5	-1.0934416
43	0xc1000215	-8.000508
44	0xc0182228	-2.3770847
45	0xbf425a56	-0.7591909
46	0xbfc0f3c6	-1.5074394
47	0xc0859313	-4.1742034
48	0xbfc92323	-1.5713848
49	0xbf9c5d2b	-1.2215933
50	0xbf1cbe6e	-0.6122807
51	0x4000bdc3	2.0115821
52	0xbdd1a5c2	-0.10236694
53	0xbe553378	-0.20820415
54	0x3deeca7a	0.11659713
55	0xbfed3de8	-1.8534517
56	0x3e42f364	0.19038159
57	0x3f9ee31f	1.2413062
58	0xbf8eb077	-1.1147603
59	0x3f91a3a1	1.137806
60	0x3fdf785e	1.7458608
61	0x409f4b2a	4.9779253
62	0x3f5bf9ee	0.8592824
63	0x40183eda	2.3788362
64	0x3edc6ad3	0.4305025
65	0x3f1ead42	0.6198312
66	0x4004ca3b	2.0748432
67	0x3fddd96b	1.7331976
68	0xbe25ffa4	-0.162108
69	0x404051e8	3.0049992
70	0x3ec84933	0.39118347
71	0x3e2c914b	0.168523
72	0x3fbccbae	1.4749658
73	0xc40ace20	-555.2207
74	0xc346a17e	-198.63083
75	0x3d8171a6	0.06320505
76	0xc3b4885b	-361.06528
77	0xc3533f5c	-211.2475
78	0xbfdde9f8	-1.7337027
79	0xbd9b0fda	-0.07571383
80	0xbee75202	-0.45179754
81	0xbd88bb5a	-0.066763595
82	0xbf254139	-0.64552647
83	0xbef784f4	-0.48343623
84	0xc00b6e66	-2.1786132
85	0xbda2a20c	-0.07941064
86	0x3f9e3e14	1.2362695
87	0xbdb07551	-0.08616126
88	0x3f9cb5d7	1.2242993
89	0xbe90dcf2	-0.28293568
90	0x3f3f373d	0.7469366
91	0x3f55ba6b	0.83487576
92	0x3e19b0ba	0.15008822
93	0x3f8095d8	1.0045729
94	0x3e9b7282	0.303608
95	0x3f5a7e6b	0.8534915
96	0xc2181736	-38.022667
97	0xc005828b	-2.0860927
98	0xbeeaba4b	-0.45845255
99	0xc19e3349	-19.775042
100	0xc0313b4a	-2.7692437
101	0xbf54bfbc	-0.83105063
102	0xbef81615	-0.48454347
103	0x3ee595dc	0.44840896
104	0xbf82ac5d	-1.0208851
105	0xbffb3f89	-1.9628764
106	0xbe0cdf45	-0.13757046
107	0xbfa28218	-1.2695951
108	0x429996ac	76.79428
109	0x428c6665	70.19999
110	0x41c849d6	25.036053
111	0x429a3769	77.10822
112	0x40a3178e	5.0966253
113	0x3f7a8829	0.97864014
114	0xc0371786	-2.8608108
115	0xc01cbe87	-2.4491289
116	0xbf369fc3	-0.7133753
117	0xc01fbf49	-2.4960501
118	0x3da55822	0.080734506
119	0xbfa39e7a	-1.2782738
120	0x3f1956bc	0.5989797
121	0x40f13e97	7.5388904
122	0x4039d5e3	2.9036796
123	0xbfd4858a	-1.6603253
124	0x418a5a51	17.2941
125	0x4054a267	3.3224123
126	0x3f07658d	0.5288933
127	0x4383b7c9	263.43582
128	0x42bd1d62	94.55739
129	0x3f0e3312	0.5554668
130	0x41d6a6c2	26.831425
131	0x428464f3	66.19717
132	0xc031dda9	-2.779154
133	0xc3aed25d	-349.64346
134	0xc2fc81dc	-126.25363
135	0xc0de07b3	-6.93844
136	0xc3e0561f	-448.67282
137	0xc307ce24	-135.80524
138	0x418854ec	17.041466
139	0x3f51db02	0.81974804
140	0x3d1d2ad0	0.038370907
141	0x419109e1	18.129824
142	0x40669d56	3.603353
143	0xbfa92d40	-1.3216934
144	0xc05d0c45	-3.4538739
145	0xc0907d32	-4.5152826
146	0xbf057683	-0.5213396
147	0xc005c75e	-2.0902934
148	0x3e4a012c	0.1972701
149	0xc054318e	-3.3155246
150	0xbf2c4733	-0.6729614
151	0x3ddeb102	0.10873605
152	0xbec589d3	-0.38581714
153	0xbf45d200	-0.7727356
154	0xbee4ebb8	-0.4471109
155	0xbf439c16	-0.76410043
156	0x42d46f90	106.217896
157	0x42b46755	90.20182
158	0x420467f0	33.1015
159	0x42cc3010	102.09387
160	0x40fa48d8	7.821392
161	0x40257f99	2.585913
162	0xc5882ea2	-4357.829
163	0xc24c8f94	-51.140213
164	0xc181822e	-16.188564
165	0xc4c74fd7	-1594.495
166	0xc370cab6	-240.79184
167	0xc2894d06	-68.65044
168	0xc39cac2e	-313.34515
169	0xbfc4111d	-1.5317723
170	0xbfb3efe6	-1.4057586
171	0xc24aa43c	-50.660385
172	0xc11f0d9d	-9.940824
173	0xbf358598	-0.7090697
174	0xc022517e	-2.536224
175	0xc1c7f7bb	-24.995962
176	0xc109c557	-8.610679
177	0xc0a20dee	-5.0642004
178	0x3e890020	0.26757908
179	0xbf00a0b5	-0.5024522
180	0x41a2800a	20.31252
181	0x41a12aa2	20.145817
182	0x40d54260	6.6643524
183	0x41a275ef	20.307585
184	0x3fbef18c	1.4917464
185	0xbf7dbcf4	-0.99116445
186	0xc25121be	-52.28295
187	0xc2ff2438	-127.57074
188	0xc23cd043	-47.20338
189	0xc26c1745	-59.022724
190	0xc0894652	-4.289834
191	0xbfb251d4	-1.3931222
192	0x3fc6acc3	1.5521473
193	0x416b6dba	14.714289
194	0x40899120	4.2989655
195	0x40ec8a40	7.391876
196	0x3f37e038	0.71826506
197	0x3f38a18e	0.7212151
198	0x40067ded	2.101436
199	0x41eec023	29.843817
200	0x412b55bf	10.708434
201	0x40a73c78	5.2261314
202	0x3fa0a47a	1.2550194
203	0x41a4ac0b	20.584005
204	0x3f221cd7	0.63325256
205	0xbfc32675	-1.5246111
206	0xbfc20a97	-1.5159482
207	0x3f643c8f	0.89154905
208	0x3f0565ab	0.5210826
209	0x3d0e52b2	0.034746833
210	0xbf6b0c3b	-0.9181554
211	0xc373fef8	-243.99597
212	0xc2b1c1fa	-88.87886
213	0xbf92f6a2	-1.1481516
214	0xbf6469fc	-0.8922422
215	0xbfa56109	-1.2920238
216	0xc47e0980	-1016.14844
217	0xc0d0cc4f	-6.52494
218	0xc03afb4c	-2.921588
219	0xc3e21473	-452.15976
220	0xc258d762	-54.210335
221	0xc1cf5c77	-25.920149
222	0x3f3eff0e	0.7460793
223	0xbfd48b5e	-1.6605031
224	0xbe871cf6	-0.26389283
225	0xbedceb51	-0.43148282
226	0x3e8ecec2	0.2789212
227	0x3fa92a8e	1.3216112
228	0x40314ec4	2.7704325
229	0x3f4a8bd1	0.7911959
230	0x3f45f3df	0.7732524
231	0xbee85121	-0.45374396
232	0x3f8ac446	1.0841148
233	0xbf952760	-1.1652641
234	0x3f2d7411	0.6775523
235	0x40816833	4.0439696
236	0x3e92612c	0.2858976
237	0x3f6de5b8	0.9292865
238	0x3ebf7ff3	0.37402305
239	0x40990e1e	4.7829733
240	0x460ad92d	8886.294
241	0x42bc3f05	94.123085
242	0x41e7ded3	28.9838
243	0x4608acc1	8747.188
244	0x444df22a	823.7838
245	0x4240edd4	48.232254
246	0xc4be2749	-1521.2277
247	0xc23226ad	-44.53777
248	0xc1799dd5	-15.601033
249	0xc579dace	-3997.6753
250	0xc36c48c5	-236.28426
251	0xc2c84d1c	-100.150604
252	0x40163be5	2.3474057
253	0x40f3f86f	7.6240764
254	0x40895f6c	4.292898
255	0x3f87b984	1.060349

lstm.weight_hh_l0 f4 [576, 144]
0	0xbf84290d	-1.0325028
1	0xbf1f9eba	-0.6235157
2	0x3f9d0fab	1.2270406
3	0xbf2044c6	-0.6260494
4	0xbe8104f3	-0.25199088
5	0xbfa91335	-1.3208987
6	0x3f99053c	1.1954722
7	0x3f941fa7	1.157216
8	0xbf40dc62	-0.7533628
9	0xbf0e8d0c	-0.5568397
10	0x3e77f52f	0.24214624
11	0xbd8e1fdc	-0.069396704
12	0xbf997a06	-1.1990364
13	0x3fba938a	1.4576275
14	0x3f5f1dcb	0.87154835
15	0xbf0620b5	-0.52393657
16	0xbe9e4d39	-0.3091829
17	0xbe41f051	-0.1893933
18	0x3fdc8351	1.7227575
19	0xbe0e477e	-0.1389446
20	0xbf46d334	-0.7766602
21	0xbea35004	-0.31896985
22	0x3f99e797	1.2023801
23	0x3f24ea17	0.6441969
24	0xbf224806	-0.6339115
25	0x3eeb87f1	0.46002153
26	0x3f296941	0.6617623
27	0xbe770104	-0.24121481
28	0x4044b6ba	3.0736527
29	0xbe6c507b	-0.23077576
30	0x3fc12093	1.5088066
31	0x3ef5f253	0.4803644
32	0xbe803670	-0.25041533
33	0xbf1702a7	-0.5898842
34	0xbfc196c1	-1.5124131
35	0xbeda5fe8	-0.42651296
36	0x3f25eaf8	0.6481166
37	0x3fa723d1	1.3057805
38	0x3fdaafa1	1.7084848
39	0xbef77801	-0.48333743
40	0x3f3bc818	0.73352194
41	0xbf1f3cc4	-0.62202096
42	0xbfcba6a9	-1.5910236
43	0xbf91694e	-1.1360261
44	0xbf917c66	-1.1366088
45	0x3ea7e4fd	0.32791892
46	0xbe445ffe	-0.19177243
47	0xbf6260c0	-0.8842888
48	0xbf5cc949	-0.86244637
49	0x3fbcc158	1.4746504
50	0x3ece3463	0.40274343
51	0xbfaaaab2	-1.3333342
52	0xbf94d983	-1.1628879
53	0xbfd8b134	-1.6929078
54	0x3e1c7332	0.15278319
55	0x3e1a6fe2	0.15081742
56	0xbf752f26	-0.9577507
57	0x3f19768a	0.599465
58	0x3f54139e	0.82842433
59	0xbf5d40b5	-0.8642686
60	0x3ec07da4	0.37595856
61	0x3f9191b3	1.1372589
62	0xbf7b1a7c	-0.98087287
63	0x3f021efa	0.50828516
64	0xbee89a6c	-0.45430315
65	0xbeb39a23	-0.35078534
66	0x3f41845a	0.7559258
67	0xbe6527be	-0.22378442
68	0x3f5ba57f	0.857994
69	0xbfaec6d7	-1.3654431
70	0x3e332b1e	0.17496917
71	0xbf79b8fa	-0.97547877
72	0xbf96dd5a	-1.1786301
73	0x3f27d770	0.65563107
74	0x3f55369d	0.8328646
75	0xbf18e6b5	-0.5972703
76	0x3f3b0f38	0.73070097
77	0x3fda6190	1.7061024
78	0xbf66956a	-0.9007174
79	0xc014e39a	-2.3263917
80	0x3e9f356c	0.31095445
81	0x401569a6	2.3345733
82	0x3f17a9c9	0.59243447
83	0xbf1eb045	-0.61987716
84	0xbe444b9c	-0.19169468
85	0xbf356199	-0.7085205
86	0xbdaf5dac	-0.08562788
87	0xbf9fb008	-1.2475595
88	0xbee9e1e4	-0.45680153
89	0x3fb06e4a	1.3783658
90	0xbfb0dec4	-1.3817983
91	0xbf9eeadc	-1.2415423
92	0xbf69eef7	-0.91380256
93	0xbf216307	-0.6304173
94	0x3f952f6f	1.16551
95	0x3e83074b	0.25591502
96	0x3f341860	0.70349693
97	0xbf573e66	-0.8407959
98	0x3f9df147	1.2339257
99	0xbf1ac3b1	-0.6045485
100	0x3f2b772c	0.66978717
101	0x3eb435a5	0.35197178
102	0x3eb400d5	0.35156885
103	0x3f98a4cc	1.1925292
104	0x3f9a3372	1.204695
105	0x3fb14b64	1.3851132
106	0x3f84b58e	1.0367906
107	0x3d4fa7a4	0.050696984
108	0xbfae2d88	-1.3607645
109	0x3f0e6f74	0.55638814
110	0x3f02ea33	0.5113861
111	0x3ef45e2f	0.47728106
112	0xbe859ded	-0.2609705
113	0xbe1aa65a	-0.1510252
114	0x3de19e45	0.11016516
115	0xbfb9ecf0	-1.4525433
116	0x3e67e375	0.22645362
117	0x3edabcd5	0.42722192
118	0x3f9f7bfd	1.2459713
119	0xbf066c81	-0.52509314
120	0x3d2e0ac6	0.042490743
121	0x3ff58a1a	1.918277
122	0xbf185f1c	-0.59520125
123	0xbfd79a4d	-1.6843964
124	0x3f0d54a5	0.5520728
125	0x3e211922	0.15732244
126	0x3f2a5cc9	0.6654783
127	0xc0288414	-2.6330614
128	0x3e246936	0.1605576
129	0xbf6c4e98	-0.92307425
130	0xbfd3e1d9	-1.6553298
131	0x3f3cfeda	0.7382637
132	0x3f24a3a1	0.6431218
133	0xbea6d59f	-0.32584855
134	0xbda05d68	-0.07830316
135	0x3f9550fd	1.1665341
136	0xbf1d213d	-0.6137884
137	0xbeb69786	-0.35662478
138	0xbf1dc122	-0.6162282
139	0x3f017e27	0.5058312
140	0x3eeb5734	0.45964968
141	0x3f43d365	0.7649444
142	0xbf7c8733	-0.986438
143	0xbd9c823a	-0.07642026
144	0x3f49cf05	0.7883151
145	0x3ec315c0	0.3810253
146	0xbf4847e1	-0.7823468
147	0xbf4c38d3	-0.79774207
148	0xbeb34c50	-0.3501916
149	0x3f2696f7	0.65074104
150	0xbf6eee1c	-0.93332076
151	0xbfaef36f	-1.366804
152	0xbe54504e	-0.20733759
153	0x3f34e80d	0.7066658
154	0xbfd5b41a	-1.6695588
155	0xc00a3e40	-2.1600494
156	0xbf4ca561	-0.7993985
157	0x3ee5910d	0.44837227
158	0x3fe2189a	1.7663758
159	0xbf55efba	-0.8356892
160	0xbfa89a91	-1.317217
161	0x3d32bb11	0.04363543
162	0x3ee43627	0.44572565
163	0xbfa6aca8	-1.302144
164	0xbfcb40f8	-1.5879202
165	0x3d5b80d2	0.05358965
166	0xbe5ac257	-0.21363197
167	0x3ebcb86c	0.36859453
168	0x3f68b08b	0.90894383
169	0x3f6f94f5	0.93586665
170	0x3e3fad17	0.18718372
171	0xbe94e419	-0.29080275
172	0x3f1c2e17	0.6100783
173	0x3fa1d244	1.2642293
174	0x3f14b3be	0.58086765
175	0x3e1be268	0.15223086
176	0x3f795c0c	0.9740608
177	0xbfaade87	-1.334916
178	0x3f8a3cbd	1.0799786
179	0xbf93f1d6	-1.1558177
180	0xbe81683f	-0.25274846
181	0xbfd6ecad	-1.6790978
182	0x3f2dc0cc	0.6787231
183	0x3f189657	0.596044
184	0x4000893c	2.0083761
185	0xbf9fbed1	-1.2480108
186	0x3e90e793	0.28301677
187	0xbfe902b8	-1.8203955
188	0x3f95bed3	1.169886
189	0x3ebe9d3d	0.37229338
190	0x3f17cd23	0.5929739
191	0x3f9949f5	1.1975695
192	0xbfc44915	-1.5334803
193	0xbf01d3e3	-0.5071394
194	0x3e8e85de	0.27836508
195	0x3fc651de	1.5493734
196	0x3d9d8bb4	0.07692662
197	0xbf3561ff	-0.70852655
198	0x3ea93cf6	0.33054322
199	0xbf2e35ff	-0.6805114
200	0x3e843910	0.25824785
201	0x3f6eb9b1	0.9325209
202	0xbd89675c	-0.06709167
203	0xbef46826	-0.4773571
204	0x3f342c2d	0.70379907
205	0x3f9924f3	1.1964401
206	0x3e165494	0.14680701
207	0x3e09b73e	0.13448808
208	0xbf24a163	-0.64308757
209	0x3fbbb327	1.4664048
210	0xbe9ed51a	-0.3102196
211	0x3f3b1137	0.7307314
212	0xbda5090f	-0.080583684
213	0x3ec770d5	0.38953272
214	0x3ea6744b	0.325106
215	0x3f2aefb5	0.66772014
216	0xbe9713f6	-0.29507416
217	0xbe65b766	-0.22433242
218	0xc00559bf	-2.0836027
219	0xbe9305fe	-0.2871551
220	0xbfc15090	-1.5102711
221	0x3f0d4f84	0.55199456
222	0x3f634a64	0.88785386
223	0xbef01c65	-0.46896663
224	0xbeeded41	-0.46470073
225	0x3e099242	0.13434699
226	0xbfe965e0	-1.8234215
227	0xbe98e694	-0.29863417
228	0x3e9193bd	0.28433028
229	0xbe8147db	-0.25250134
230	0x3f1b2dd9	0.6061683
231	0x3f261673	0.64878005
232	0xbe9aaad7	-0.30208465
233	0xbfc69083	-1.5512851
234	0x3e64680c	0.22305316
235	0x3eb5c662	0.35502917
236	0xbecf5895	-0.4049727
237	0x400ed021	2.2314532
238	0x3ea23071	0.31677583
239	0xbf4784cb	-0.77937
240	0x3e710e4a	0.23540607
241	0x3ba1e4ca	0.004940604
242	0xbe470320	-0.19434786
243	0x3f3a9d2b	0.7289607
244	0x3f6481de	0.8926066
245	0xbf2ad097	-0.6672453
246	0xbf224cd5	-0.63398486
247	0xbf4a0e50	-0.7892809
248	0x3fb273df	1.3941611
249	0x3ef645bd	0.4810008
250	0xbf1d10bf	-0.6135368
251	0x3f9f6541	1.2452775
252	0xbf8c709b	-1.0971864
253	0x3ef2744e	0.47354358
254	0x40229c0a	2.5407739
255	0xbe6f6eb9	-0.23382081

lstm.bias_ih_l0 f4 [576]
0	0xbfc95500	-1.5729065
1	0xc01b099e	-2.422462
2	0xc02569a2	-2.5845723
3	0x3d9d74dd	0.076883055
4	0x3f3aaf1f	0.72923464
5	0xbeff1db4	-0.4982735
6	0x3f2717db	0.65270776
7	0xbe8b8b43	-0.27254686
8	0x3efa35c1	0.48869136
9	0xbfcd8fe0	-1.6059532
10	0x3e92960f	0.2863011
11	0xbf291f52	-0.66063416
12	0xc09048a6	-4.508868
13	0xbf62bbdf	-0.8856792
14	0x3f811692	1.0085013
15	0x3f69efec	0.91381717
16	0xbebd1d27	-0.36936304
17	0x3f4f8649	0.8106428
18	0xbebe1c03	-0.37130746
19	0xbf2c74a0	-0.67365456
20	0xbf822bc7	-1.016961
21	0x40646312	3.5685468
22	0xc0adbf7c	-5.4296246
23	0x3e1290d2	0.14313057
24	0xbe2f6e99	-0.17132033
25	0xbfacbe75	-1.3495623
26	0xbefe8ea1	-0.49718192
27	0xbfff5878	-1.9948874
28	0x3fd0c063	1.6308712
29	0xbe5dfff3	-0.21679668
30	0xbedfd4e1	-0.437171
31	0xc003a9d9	-2.0572417
32	0xbef11135	-0.4708344
33	0xbfb1b44d	-1.3883148
34	0x3f61e60a	0.88241637
35	0xc0206a21	-2.5064776
36	0xbe87c653	-0.26518497
37	0x3ebeff11	0.37303975
38	0x3f0541c0	0.5205345
39	0x3ec3228e	0.381123
40	0x3e093f2d	0.13403006
41	0x3f6b0fac	0.9182079
42	0xbfe3b287	-1.7788857
43	0x3ef676ef	0.48137614
44	0xbeac7143	-0.33680162
45	0xc05c48a5	-3.4419339
46	0xbefe1f87	-0.49633428
47	0xc0540207	-3.3126237
48	0x4084a729	4.1454053
49	0xbe2e5e89	-0.1702825
50	0xbf7db34f	-0.9910173
51	0xbdc560af	-0.096375816
52	0x3f10e2d5	0.5659612
53	0x3f038cdc	0.5138681
54	0x3f174ae3	0.59098643
55	0x3f3502f0	0.7070761
56	0xbf1eaf7f	-0.61986536
57	0xbe4ff31f	-0.20307587
58	0xbee917f0	-0.45526075
59	0x403655c6	2.8489852
60	0x3f65d984	0.8978503
61	0x3ed40041	0.41406444
62	0xbe93dd8b	-0.2887996
63	0xbfadd9e6	-1.3582122
64	0x3d1fe283	0.039034378
65	0x3ea8f55c	0.32999694
66	0x3eb8e7c8	0.36114335
67	0x3e58193d	0.21103378
68	0xc10a46ab	-8.642253
69	0xbe31d812	-0.1736758
70	0x3f4fa7e8	0.8111558
71	0x3f161b7d	0.58635694
72	0xc14bb870	-12.732529
73	0xbf3c6d3b	-0.7360417
74	0x3f63f3cb	0.89043874
75	0x3f6a8a46	0.9161724
76	0x3e37366b	0.17891853
77	0xc0715267	-3.7706544
78	0x3fa4f752	1.2887976
79	0x3e7a4e84	0.24444014
80	0xc09a518d	-4.822455
81	0xbdb92dbe	-0.09041928
82	0xbf973166	-1.181195
83	0xbee45096	-0.44592732
84	0x3ff0449f	1.8770941
85	0xbfd67c60	-1.6756706
86	0xc15a00aa	-13.625162
87	0xbf9e0cf4	-1.2347703
88	0x413c1e8c	11.757458
89	0x3f8a0ecf	1.0785769
90	0x40998463	4.7974105
91	0x3ee90de7	0.4551842
92	0xc02abf23	-2.667916
93	0x3ea7f9dc	0.32807815
94	0x3f88f9e8	1.0701265
95	0x3df161aa	0.11786206
96	0x3f9b1255	1.211497
97	0x3fb7411f	1.4316748
98	0xbe62d5d3	-0.2215188
99	0xbdbbf1c8	-0.091769755
100	0x3dd1448c	0.102181524
101	0x3fb1d005	1.3891608
102	0x3ef6dcba	0.48215276
103	0xbf851cf7	-1.0399464
104	0x3f085e91	0.53269297
105	0x3ffb2449	1.9620448
106	0x3f50a2a3	0.81498164
107	0x3e6710e3	0.22565036
108	0x3e9cbfa9	0.30614975
109	0xbf775cab	-0.96625775
110	0x3f32a205	0.6977847
111	0xbf5166e7	-0.8179764
112	0xbf8ef29c	-1.1167789
113	0xbf1af834	-0.6053498
114	0xbf3e94da	-0.7444588
115	0xbf644fa2	-0.8918401
116	0xbf802a44	-1.0012898
117	0x3dd1b6b5	0.10239927
118	0xbeed0c8f	-0.46298644
119	0xc0c6e66e	-6.2156286
120	0xc1d76743	-26.92542
121	0x3fa3b58e	1.2789781
122	0x3fafbe60	1.3729973
123	0xbfa100b1	-1.2578336
124	0xbe25b3c2	-0.16181853
125	0xbee4e33a	-0.4470461
126	0x3ea97bd3	0.33102283
127	0x3fa4fb06	1.2889106
128	0xbdbe4154	-0.09289804
129	0xbf3b4d2b	-0.73164624
130	0xbfadf8c5	-1.3591543
131	0xc008e135	-2.1387455
132	0x3fbf32b8	1.4937353
133	0xbf18f97e	-0.59755695
134	0x3f9b4a07	1.2131966
135	0x3c94a98b	0.01814725
136	0x3e4ffb87	0.20310794
137	0x3f26322b	0.649203
138	0x3fd944aa	1.697408
139	0xbedd39eb	-0.4320825
140	0xbea57975	-0.32319227
141	0x3fd06113	1.6279625
142	0x3fc223f8	1.5167227
143	0x3fe8e056	1.8193462
144	0x3f6a9dcb	0.9164702
145	0xc1278394	-10.469624
146	0xc003df7b	-2.0605152
147	0xbf859b3a	-1.0437996
148	0x3f9056b6	1.1276462
149	0x3f111b02	0.56681836
150	0xbe8a3323	-0.2699214
151	0xbfa70b57	-1.3050336
152	0xbf6367ef	-0.88830465
153	0x3f8f457b	1.1193079
154	0xbfa2c65f	-1.2716788
155	0xbff1e3a5	-1.8897597
156	0x3f33b885	0.7020343
157	0x3f7e1e54	0.9926503
158	0xbec6bb14	-0.38814604
159	0x3e66fe34	0.22557908
160	0x3f9c4050	1.2207127
161	0x3e413a2f	0.18869852
162	0x4042ddb2	3.0447812
163	0x3fec53b9	1.846305
164	0x3fb2a3ae	1.3956201
165	0xbec85d65	-0.39133754
166	0xbf0c3759	-0.54771954
167	0x3dcf565a	0.10123892
168	0xbf86edc5	-1.0541312
169	0x3ec98156	0.39356488
170	0x3e124db5	0.14287455
171	0xbfe71726	-1.8053939
172	0xbf3ca3c8	-0.7368741
173	0x3ea8aded	0.32945195
174	0xbffaa1ce	-1.9580629
175	0x3e7784f7	0.24171816
176	0xbf0e43f9	-0.5557247
177	0x3e8c071a	0.27349168
178	0xbe161edb	-0.14660208
179	0xbf9426a9	-1.1574298
180	0x3fc7f190	1.5620594
181	0xbe874f63	-0.26427755
182	0x3efd55e5	0.49479595
183	0x3f89813b	1.0742563
184	0x3f4cd407	0.8001103
185	0xbedacc92	-0.427342
186	0x3df09dde	0.11748861
187	0x4062ecac	3.5456953
188	0xbe745941	-0.23862173
189	0x3dfee028	0.12445098
190	0xbf174904	-0.5909579
191	0xbf3ca380	-0.7368698
192	0x3f1fc235	0.6240571
193	0x3f123221	0.5710774
194	0xbf0bfd01	-0.5468293
195	0xc01374f3	-2.304013
196	0xbecb135e	-0.39663213
197	0xbe8723be	-0.26394457
198	0xbecc3e59	-0.39891317
199	0x3e2bba82	0.16770366
200	0x3ff42964	1.9075131
201	0xbf4a4180	-0.79006195
202	0x3f15bcda	0.5849129
203	0x3fb3724a	1.4019253
204	0x3e48d920	0.19614077
205	0x3fc77978	1.5583944
206	0xbb7acfab	-0.0038270752
207	0x3e83fd0a	0.2577899
208	0x3f866d75	1.0502154
209	0x3e9d88c0	0.30768394
210	0x3fd5c209	1.669984
211	0x3ed763a8	0.4206822
212	0x3f0c151b	0.54719704
213	0xbf454af0	-0.7706747
214	0x3deeb354	0.11655298
215	0x3f7745fa	0.9659115
216	0x3f6604a7	0.8985085
217	0xbf896b51	-1.0735875
218	0x3f1336b7	0.57505363
219	0x3fe42e0f	1.7826556
220	0xbbda7920	-0.0066672713
221	0x3f8369b7	1.0266637
222	0x3fbed450	1.4908543
223	0x3e8d652f	0.2761626
224	0x3e0d2f35	0.1378754
225	0xbe9704ba	-0.29495794
226	0x3e1521ff	0.1456375
227	0x3ec60d55	0.38682047
228	0x3e1128cc	0.14175719
229	0xbf4300c2	-0.7617303
230	0x3ee18353	0.44045505
231	0x3f1a3dbc	0.6025045
232	0x3dd411b1	0.10354937
233	0x3f985d3d	1.1903454
234	0xc0880c3c	-4.2514935
235	0xbf963ae8	-1.1736727
236	0xbfa319f9	-1.2742301
237	0x3f0934d7	0.5359625
238	0x3f9b1dcd	1.211847
239	0xbea0a0ce	-0.31372684
240	0x3f4067b5	0.75158244
241	0x3ef82054	0.48462164
242	0xbfec4693	-1.8459038
243	0x3f869fe6	1.0517547
244	0xbde56279	-0.11200423
245	0xbf96a491	-1.1768972
246	0xbf409e63	-0.7524168
247	0x3e127625	0.14302881
248	0xbf9dd4f0	-1.2330608
249	0xbebd57d3	-0.36981067
250	0x3ec1168b	0.3771251
251	0xbf80f74f	-1.0075473
252	0xbf61fa54	-0.88272595
253	0xbeb4f476	-0.3534276
254	0x3fb54779	1.4162437
255	0x3f0f9ec1	0.56101614

lstm.bias_hh_l0 f4 [576]
0	0xbe3ae7c4	-0.18252474
1	0xbfe15d6a	-1.7606633
2	0x3f027563	0.5096037
3	0xbf70d2bc	-0.94071555
4	0xbee5d003	-0.44885263
5	0xbf9a8895	-1.2072932
6	0xbe8f7b45	-0.28023735
7	0xbf068af9	-0.52555805
8	0x3e452947	0.19254027
9	0x3e8e6e67	0.27818605
10	0xbf2b2bc9	-0.66863686
11	0x3e9dc775	0.30816236
12	0xc0746d6b	-3.8191783
13	0xbfa94341	-1.3223649
14	0x3f72b744	0.9481089
15	0xbf2c8599	-0.67391354
16	0x4016be09	2.3553488
17	0xbf25b347	-0.6472668
18	0x3f2e1b9b	0.6801087
19	0x3fa2d430	1.2721004
20	0x3fa6b370	1.302351
21	0x404ce091	3.2012064
22	0xbfd00123	-1.6250347
23	0x3e9bbe11	0.30418447
24	0xc004f971	-2.0777247
25	0x3f03fcc4	0.51557565
26	0xbf15211e	-0.5825366
27	0xbf1837af	-0.59459966
28	0x3fde32af	1.7359217
29	0xbeb61d69	-0.35569313
30	0x3f0edac2	0.5580255
31	0xc031678f	-2.7719457
32	0x3e9aa145	0.30201164
33	0x3f598bac	0.8497875
34	0xbf68c6a1	-0.90928084
35	0xc04563a8	-3.0842075
36	0x3f3d0860	0.73840904
37	0xbfdd74f5	-1.7301317
38	0xbf68087f	-0.90637964
39	0xbd6e384b	-0.058159154
40	0xbd9e85a5	-0.077403344
41	0xba0286fd	-0.0004979221
42	0xbfba7fa2	-1.45702
43	0xbeeeda55	-0.4665095
44	0xbf3e396c	-0.7430637
45	0xbef10101	-0.47071078
46	0xbed4d491	-0.41568425
47	0xbfcecf33	-1.6156982
48	0x408a5197	4.3224597
49	0x3f30be6e	0.6904057
50	0xbf6f1c39	-0.9340244
51	0x3faba27c	1.3408961
52	0xbefd1f7f	-0.49438092
53	0xbfc2c43a	-1.5216134
54	0x3f8bf747	1.0934838
55	0xbffa6927	-1.956334
56	0x3edfb387	0.43691656
57	0xbf2fcd6f	-0.6867284
58	0x3e7cec97	0.24699627
59	0x40627fda	3.5390534
60	0x3fa466d2	1.2843878
61	0x3ebcb432	0.36856228
62	0xbe9eb546	-0.30997676
63	0xc0095bcd	-2.146228
64	0xbf086505	-0.53279144
65	0x3eae96f3	0.3409954
66	0xbfcb7d9f	-1.5897712
67	0x3f3119b8	0.6917987
68	0xc10723ac	-8.446209
69	0xbff73595	-1.9313227
70	0x3f84f6d6	1.0387828
71	0xbfa3847b	-1.2774805
72	0xc14912a4	-12.567051
73	0x3e4be4b1	0.19911458
74	0x3f15420f	0.5830392
75	0xbfa23c3c	-1.2674632
76	0x3e74285d	0.23843522
77	0xc025542d	-2.5832627
78	0x3f241a16	0.64102304
79	0xbecdd5e2	-0.40202242
80	0xc07cefaf	-3.9521291
81	0xbe9903f9	-0.29885843
82	0x3f7bf314	0.9841778
83	0x3fe197d7	1.7624463
84	0x3f804584	1.0021214
85	0x3f60210f	0.87550443
86	0xc1497b28	-12.592567
87	0xbf2668ef	-0.65003866
88	0x4100edc1	8.058045
89	0xbe98157e	-0.29703897
90	0x40882f46	4.2557707
91	0x3e4a0c39	0.19731225
92	0xbfb8138d	-1.4380966
93	0x3f868cba	1.0511696
94	0xbfa4039f	-1.2813605
95	0x3f885b86	1.0652931
96	0x3f9a16da	1.2038224
97	0x3e170d77	0.1475123
98	0xbea14383	-0.3149682
99	0x3db318d4	0.0874497
100	0xbed421ad	-0.41431943
101	0x3ed5ba48	0.41743684
102	0x3f6f0e5b	0.9338128
103	0xbf1434fa	-0.57893336
104	0x3fbd28a2	1.4778025
105	0xbf5a4172	-0.8525611
106	0x3ea0b232	0.31385952
107	0x3f70aa6e	0.94010055
108	0x3f832d4b	1.0248197
109	0xbd1aecbf	-0.037823435
110	0x3a439d36	0.0007462086
111	0xbeb415b4	-0.35172808
112	0x3f78c3f9	0.9717403
113	0xbf8add49	-1.0848781
114	0xbf11a50e	-0.5689248
115	0x3f3c6fa7	0.7360787
116	0x3f293fd5	0.66113025
117	0x3fb13454	1.3844094
118	0xbf06ac09	-0.52606255
119	0xc08b823b	-4.3596473
120	0xc1d89148	-27.070938
121	0xbf3e62a5	-0.7436927
122	0xbe0c9d98	-0.13731992
123	0x3e5effb9	0.21777238
124	0xbe400f4f	-0.1875584
125	0x3f6a3907	0.91493267
126	0xbfbe7dd3	-1.4882149
127	0xbfa03f51	-1.2519323
128	0xbeda0e7e	-0.42589182
129	0xbd6ea5c0	-0.05826354
130	0xc03df83a	-2.9682755
131	0xbf36eb77	-0.7145304
132	0xbe563a99	-0.2092079
133	0x3d9aa24a	0.075504854
134	0x3f39f862	0.7264463
135	0x400385ee	2.0550494
136	0xbfda04aa	-1.7032673
137	0xbeb1f9ba	-0.3476084
138	0xbec220ec	-0.37915742
139	0x3f866e70	1.0502453
140	0x3fd2a9a9	1.6458026
141	0x3f06c37d	0.5264204
142	0xbf55bbb4	-0.8348954
143	0xbeb79ff5	-0.35864225
144	0x3e601305	0.21882255
145	0xc0db719d	-6.857619
146	0x3ff44f88	1.9086771
147	0xc045bf14	-3.0897875
148	0xbf90096d	-1.1252877
149	0x3f999305	1.1997992
150	0xbd894e07	-0.06704336
151	0xbd687637	-0.056753363
152	0xbf6568ec	-0.89613223
153	0x3ecb6743	0.3972722
154	0x3e5cbd9c	0.21556705
155	0x3d955df4	0.07293311
156	0xbf386e28	-0.72043085
157	0x3e7af322	0.2450681
158	0x3f78f01f	0.97241396
159	0xbf58583f	-0.8450965
160	0xbf9b01e0	-1.2109947
161	0xbd6a9213	-0.057268213
162	0x3f91ca3b	1.1389841
163	0xbe742ef1	-0.23846032
164	0x3e98a399	0.29812315
165	0xbeaee3fb	-0.3415831
166	0x3f6e0ce0	0.92988396
167	0xbe8d91ee	-0.27650398
168	0x3d93595b	0.071947776
169	0x3f490b8b	0.7853324
170	0xbf1133ee	-0.56719863
171	0xbfe6926b	-1.8013433
172	0x3fca0d6e	1.5785348
173	0xbfd86270	-1.6905041
174	0xbe76c1bc	-0.24097341
175	0x3d31510c	0.043290183
176	0xbf9a5559	-1.2057296
177	0xbeb68313	-0.35646877
178	0x3f61b810	0.8817148
179	0xbf889486	-1.0670326
180	0xbfaa6413	-1.331179
181	0x3fe80322	1.8125956
182	0x3f459067	0.77173465
183	0xbfc43ed5	-1.5331675
184	0xbda456b0	-0.08024347
185	0xbe2d7788	-0.16940129
186	0xbf035b6f	-0.5131139
187	0x3fd79df0	1.6845074
188	0x3d6bd556	0.0575765
189	0xbf1a6794	-0.603143
190	0xbe698aa2	-0.2280679
191	0xbf70757a	-0.93929255
192	0xbe2d83ad	-0.16944762
193	0xbfc7b270	-1.560133
194	0xbf4f3c77	-0.8095164
195	0x3f8617a4	1.0475965
196	0x3f7a0fd4	0.976804
197	0xbf1bd263	-0.608679
198	0x3f24eb65	0.64421684
199	0xbe3c0541	-0.18361379
200	0xc0115379	-2.2707198
201	0x3ff74fb6	1.9321201
202	0x3f37b823	0.71765345
203	0xbe9ee49b	-0.31033787
204	0xbfc89d2f	-1.5672969
205	0x3f84dd15	1.0379969
206	0xbf57c2bb	-0.8428151
207	0x3f8a6e46	1.0814903
208	0xbf1a14cf	-0.60188
209	0xbfd4db6c	-1.6629462
210	0x3f159192	0.5842525
211	0xbf0abe8f	-0.5419702
212	0xbe60c384	-0.21949583
213	0xbf392afe	-0.72331226
214	0x3e8bd568	0.27311254
215	0xbfffa3ae	-1.9971826
216	0x3ff778cd	1.933374
217	0xbf6d96d6	-0.9280828
218	0x3e2ef9b7	0.17087446
219	0x3fae4ee0	1.3617821
220	0x3f53bd33	0.8271057
221	0x3f73dd34	0.95259404
222	0xbfac7e71	-1.3476087
223	0xbecdfd34	-0.4023224
224	0x3e491b94	0.19639426
225	0xbc806173	-0.015671467
226	0xbef90a34	-0.48640597
227	0xbe4c048b	-0.19923608
228	0x3e8ca189	0.27466992
229	0xbf5e311d	-0.8679369
230	0x3f80fde6	1.0077484
231	0x3f4c559a	0.7981812
232	0xbee7e8b8	-0.45294738
233	0xbea63a33	-0.32466277
234	0xc061c910	-3.527897
235	0xbf95ac81	-1.1693269
236	0x3fae6ed6	1.3627574
237	0x4007efb3	2.124005
238	0xbfa11b1c	-1.2586398
239	0xbeef9a31	-0.46797326
240	0xbf8ec0f6	-1.1152637
241	0x3f00750f	0.5017862
242	0xbec9192e	-0.39277023
243	0xbea7aa8a	-0.32747298
244	0xbf1b4ae7	-0.60661167
245	0x3f39d26e	0.72586715
246	0x3cbeae5b	0.023276499
247	0x3e023bb5	0.12718089
248	0xbf0705b3	-0.5274307
249	0x3e624579	0.22096814
250	0xbffd2b35	-1.9778811
251	0xbf2da783	-0.6783373
252	0xbee758d4	-0.45184958
253	0xbf70e70b	-0.94102544
254	0x40845805	4.1357446
255	0xbf054618	-0.5206008

dense.1.weight f4 [6, 144]
0	0x424c07bb	51.00755
1	0x440a5e9b	553.4782
2	0xc2617ac1	-56.369877
3	0xbf08c65a	-0.5342766
4	0xc42f6ef8	-701.7339
5	0x430c6af8	140.41785
6	0xc0385158	-2.8799648
7	0x3eff06b4	0.49809802
8	0xbd390e28	-0.045179516
9	0xc0634c15	-3.5515187
10	0x429de90f	78.95519
11	0x43c36d09	390.85184
12	0x43bc58fe	376.69525
13	0x3d0a0d54	0.033704117
14	0x3f68065b	0.906347
15	0x4436b8f5	730.88995
16	0x3eb25f8d	0.34838524
17	0x3f9d9c3a	1.2313302
18	0x428b6d95	69.71403
19	0x3e9d256e	0.3069262
20	0x4338756d	184.4587
21	0xc3074116	-135.25424
22	0x43a1e5ba	323.79474
23	0x43d2bdf1	421.48392
24	0xc3c899d5	-401.2018
25	0xbe8e8597	-0.27836296
26	0xc431a5d1	-710.5909
27	0x43a46a5e	328.831
28	0x43b9667a	370.8006
29	0x43a20561	324.04202
30	0x42a2efdd	81.46848
31	0x44196c8b	613.696
32	0xc29e61a4	-79.190704
33	0x42fda90a	126.830154
34	0x3e8c3695	0.27385393
35	0x3efd22fc	0.49440753
36	0x43cbbdf3	407.48398
37	0x3fa5ddb4	1.2958283
38	0xc3a3dc7a	-327.72247
39	0x42a0d49d	80.41526
40	0xc396f836	-301.93915
41	0xc2eadb0c	-117.427826
42	0xc2a50392	-82.50697
43	0x4292443e	73.133286
44	0x43808529	257.0403
45	0xc3f2c2dc	-485.52234
46	0xc4363752	-728.8644
47	0xc2f67dff	-123.246086
48	0xc3afa658	-351.29956
49	0x3dcd06cd	0.10011063
50	0xbf817fb6	-1.0117099
51	0x3e178638	0.14797294
52	0xbef783b7	-0.48342678
53	0xbeecd549	-0.46256474
54	0x4306d98b	134.84978
55	0x4293a5b7	73.82366
56	0xbf50d317	-0.815721
57	0x429ae6fa	77.451126
58	0x40783c68	3.878687
59	0x43b98f1c	371.11804
60	0x3e85e922	0.2615443
61	0x3c607c96	0.013701579
62	0x3fc828d4	1.563746
63	0x438b168d	278.17618
64	0x3f2f2791	0.6841975
65	0xc03140e8	-2.7695866
66	0xbf95575d	-1.1667286
67	0xc2fd5ac2	-126.67726
68	0x43beb191	381.38724
69	0xbeaf062c	-0.34184396
70	0xc3034e56	-131.306
71	0xc300c74f	-128.77855
72	0xc3a0a86b	-321.31577
73	0xc2f84366	-124.13164
74	0x3f4a26b0	0.7896528
75	0xbe516329	-0.20447983
76	0xbc0388aa	-0.008028189
77	0xc2b9d79f	-92.921135
78	0x3f4067cc	0.7515838
79	0x43a5ef49	331.86942
80	0x44031a7e	524.41394
81	0x3f831b95	1.0242792
82	0x3e80584f	0.25067374
83	0x3ec92eeb	0.39293608
84	0x429bccef	77.90026
85	0x42fe5375	127.163
86	0xc33bb8be	-187.72165
87	0xc1425f01	-12.148194
88	0xc34ca4a5	-204.64314
89	0xbe0e2e03	-0.1388474
90	0x4307fcfc	135.98822
91	0xbe922719	-0.28545454
92	0xc4274522	-669.0802
93	0xc3024dad	-130.30342
94	0x3fefd6ec	1.8737464
95	0x43bf5349	382.65067
96	0xbf189ff3	-0.59619063
97	0x42948af1	74.27137
98	0xbf2a542d	-0.6653469
99	0xc29a2008	-77.06256
100	0xc40d7d5e	-565.95886
101	0xc40ea5f3	-570.59296
102	0xc3848346	-265.02557
103	0x4305fd49	133.9894
104	0xc305c5c5	-133.77254
105	0xbfdf4c2d	-1.7445122
106	0xbf34ea2a	-0.70669806
107	0xbf1a963d	-0.60385495
108	0xc315911e	-149.56686
109	0xc3007d44	-128.48932
110	0xc29dec22	-78.9612
111	0x3ff6af88	1.9272318
112	0xc00504ca	-2.0784173
113	0x43c33ce0	390.4756
114	0xc1187ca2	-9.530428
115	0x4309f128	137.94202
116	0xbe7e0d15	-0.24809678
117	0x42a531d3	82.59731
118	0x42af73d2	87.72621
119	0xc33baa0e	-187.66428
120	0xc308dcc2	-136.86234
121	0x3de631d9	0.112399764
122	0xc2adfa6a	-86.98909
123	0x43de6a16	444.8288
124	0xc38625bc	-268.2948
125	0xc5304e33	-2820.8875
126	0xc305f1f9	-133.9452
127	0xbf9d2fc2	-1.22802
128	0xc3a57e5a	-330.98712
129	0xc3894323	-274.5245
130	0xc39a4283	-308.51962
131	0x3f503d02	0.8134309
132	0x3f7e77a9	0.99401337
133	0x4302f5d3	130.96025
134	0x3e67915a	0.22614041
135	0x42fcb080	126.34473
136	0xbfdbbb5f	-1.7166556
137	0x43be1177	380.13644
138	0xbf1eff86	-0.6210865
139	0xbdf98bc6	-0.12184863
140	0x415749fc	13.455563
141	0xc3086879	-136.4081
142	0xbf338138	-0.7011905
143	0xc30958c3	-137.34673
144	0xbf865e34	-1.0497499
145	0x40a824de	5.2545004
146	0xbfe6f385	-1.8043066
147	0x3ecb9a9a	0.3976639
148	0xbfaec2cd	-1.3653198
149	0x3febf907	1.8435372
150	0x3f6a7477	0.9158396
151	0xbf79a348	-0.9751477
152	0xbe8c3e1c	-0.27391136
153	0xbf9a4cad	-1.205465
154	0x3f95c81d	1.1701695
155	0x409799f8	4.737545
156	0x4091a27e	4.5510855
157	0x3f84c688	1.0373087
158	0xbf635f18	-0.88816977
159	0x3fac0bcd	1.3441101
160	0xbf822bca	-1.0169613
161	0x3dc5b509	0.0965367
162	0x3f9160af	1.135763
163	0x4022e004	2.5449228
164	0x402cface	2.702808
165	0xbfec0376	-1.8438556
166	0x404ee09c	3.232459
167	0x4050d1fc	3.2628164
168	0xc07a3b3b	-3.9098651
169	0x3db3c486	0.08777718
170	0xc0c2dc5d	-6.0894
171	0x40651f3b	3.5800312
172	0x40911195	4.5333962
173	0x401e3029	2.4716895
174	0x3f9509fe	1.1643674
175	0x40d6ed2e	6.7164526
176	0xbf95ccab	-1.1703085
177	0x3fea3e31	1.8300229
178	0x3eee1edd	0.46507922
179	0xbfdd4d63	-1.7289242
180	0x403e8c69	2.97732
181	0xbdba749b	-0.09104272
182	0xc07577cc	-3.8354368
183	0x3f944361	1.1583062
184	0xc0945364	-4.6351795
185	0xbfb613c3	-1.4224781
186	0xbf951a8e	-1.1648729
187	0x3f954097	1.1660336
188	0x406934f3	3.6438568
189	0xc0ddafc1	-6.9277043
190	0xbfb035b1	-1.3766385
191	0xc04d6df5	-3.2098362
192	0xc0a5e231	-5.1838613
193	0x3fdd8ad6	1.7307994
194	0xbcf8e7f8	-0.030384049
195	0xbf25bb22	-0.64738667
196	0xbf085b79	-0.53264576
197	0x3f5c2d5a	0.860067
198	0x3feab561	1.8336602
199	0x3f93bc87	1.1541909
200	0x400aeff7	2.1708963
201	0x3f924505	1.1427313
202	0x3eebae27	0.46031305
203	0x40975004	4.7285175
204	0xbf953abc	-1.1658549
205	0xbd140d9d	-0.036145795
206	0xbfe0ab58	-1.755229
207	0xbf09e6c6	-0.5386776
208	0xbf1af8e8	-0.6053605
209	0x3fa1fec5	1.2655874
210	0x3e92154d	0.28531876
211	0xbfeca69b	-1.8488344
212	0x409d148d	4.9087586
213	0xbfbd8a3f	-1.4807814
214	0xbfec3807	-1.8454598
215	0xbfebdd77	-1.8426961
216	0xc035a34f	-2.8380926
217	0xbfebf6c9	-1.8434688
218	0x3f857c3f	1.0428542
219	0x4002365e	2.0345683
220	0xbe3b5623	-0.18294577
221	0xbfdf5ccc	-1.7450194
222	0xbf3e5fdc	-0.7436502
223	0x4004f1e0	2.0772629
224	0x40cded9a	6.435254
225	0xbf18d98a	-0.5970694
226	0xbe50b4d3	-0.20381479
227	0x401f804b	2.4922054
228	0x40114b7a	2.2702317
229	0x3fed161c	1.8522372
230	0xc010951f	-2.2591016
231	0x3e5ed38f	0.2176039
232	0x3ff9e00e	1.9521501
233	0x3ec20096	0.37891072
234	0x3feab46e	1.8336313
235	0x3f620cd6	0.88300836
236	0xc0d2e04c	-6.58988
237	0xbfeb2739	-1.8371345
238	0x3e99cf69	0.30041054
239	0x40c06103	6.0118423
240	0xbc96c4f6	-0.018404465
241	0xbeb2cc67	-0.34921572
242	0xbf4275cb	-0.7596099
243	0xbf942435	-1.157355
244	0xc0c5a03f	-6.1758113
245	0xc0b645a3	-5.6960006
246	0xbfec1a04	-1.8445439
247	0x3febc4d2	1.841944
248	0xbfeb6b95	-1.8392206
249	0x3f5841bd	0.8447531
250	0xbf5725bb	-0.8404195
251	0xbf8d0d62	-1.1019709
252	0xbd0798c8	-0.033104688
253	0xbfeccedd	-1.850063
254	0xbf96d09f	-1.1782416
255	0xbf7b61be	-0.9819602

dense.1.bias f4 [6]
0	0x4595da81	4795.313
1	0x42757c89	61.371616
2	0x41aedd50	21.858063
3	0x459472ce	4750.3506
4	0x43cc340b	408.4066
5	0x42b4592c	90.174164
